logs/CartPole-v1.pth (torch_old, 62628 bytes, 21 tensors)

feature_ext.fc.0.weight f4 [64, 4]
0	0xbe6ce32e	-0.23133537
1	0xbd29ec3e	-0.041485064
2	0xbf2d9af4	-0.67814565
3	0xbd30d877	-0.043175187
4	0x3dd2d341	0.102942
5	0x3e6617cf	0.2247002
6	0x3ceff12e	0.029289808
7	0x3cf5c19b	0.029999545
8	0xbe2b069f	-0.16701744
9	0xbd82d202	-0.06387712
10	0xbf21e601	-0.63241583
11	0xbe023217	-0.1271442
12	0x3dd96336	0.10614626
13	0xbe866f6a	-0.26256877
14	0xbdd40436	-0.10352366
15	0xbe0958e4	-0.13412815
16	0x3c75bc7b	0.0149985505
17	0xbe350498	-0.17677534
18	0xbf36364c	-0.711766
19	0x3d4d4370	0.05011314
20	0xbe19b9a6	-0.15012226
21	0x3dbfb30a	0.09360321
22	0xbe13dc72	-0.14439562
23	0xbd229f64	-0.039702788
24	0xbe125d66	-0.14293441
25	0xbdf7db53	-0.1210238
26	0xbed55c81	-0.41672137
27	0xbdea1e3d	-0.11431549
28	0x3e1b6d9b	0.1517853
29	0xbe2fe6ba	-0.17177859
30	0xbe64d81a	-0.22348061
31	0x3d471d8f	0.048612174
32	0x3cd2d505	0.025736341
33	0x3e277f78	0.16357219
34	0x3f547b2c	0.83000445
35	0x3d501cb1	0.050808612
36	0x3d86ddf8	0.06585306
37	0x3dbf5d32	0.093439475
38	0x3ed165d7	0.4089801
39	0x3e018f71	0.12652375
40	0x3e9f044d	0.3105797
41	0x3e570ed8	0.21001756
42	0x3f7aa0af	0.97901434
43	0x3eea5df9	0.4577482
44	0x3f39080a	0.7227789
45	0x3ef075c4	0.46964848
46	0xbee88c5e	-0.45419592
47	0xbd4a1a43	-0.04934145
48	0xbe1e9a56	-0.15488562
49	0x3dab2cb1	0.083581336
50	0x3f094e5d	0.536352
51	0xbdce27b9	-0.1006617
52	0xbe3ea2da	-0.1861681
53	0x3e1f6016	0.15563998
54	0x3f020997	0.5079588
55	0x3e373a0a	0.17893234
56	0xbe050a99	-0.12992324
57	0x3cab92f7	0.020944102
58	0x3eb242b9	0.3481653
59	0x3e05242f	0.13002084
60	0xbdd32672	-0.10310067
61	0xbd0e8889	-0.03479818
62	0x3f3e1ee6	0.742659
63	0xbd41238f	-0.047153052
64	0xbdb42ff7	-0.08798211
65	0x3d754fa4	0.059890404
66	0xbde6b60f	-0.11265194
67	0x3e00acf1	0.12565972
68	0x3dd72692	0.105054036
69	0xbddba9b2	-0.10725726
70	0xbf8460ff	-1.0342101
71	0x3c46aca6	0.0121261235
72	0x3f35f401	0.71075445
73	0x3ea69ccf	0.3254151
74	0xbf7a8c0a	-0.9786993
75	0xbea72eb9	-0.32652834
76	0x3edd5edc	0.43236434
77	0x3e922d7c	0.28550327
78	0xbd7822a1	-0.0605799
79	0x3e11b2b7	0.1422833
80	0xbe0e0296	-0.13868174
81	0xbcc8d3af	-0.024515001
82	0xbea8eb3f	-0.3299198
83	0xbdad1f87	-0.08453279
84	0xbe42707e	-0.18988225
85	0x3e88115e	0.2657575
86	0x3f044706	0.51670873
87	0x3e39c405	0.18141182
88	0x3e8c06ce	0.27348942
89	0x3ed1471d	0.40874568
90	0x3f985e04	1.1903691
91	0x3e7ca1aa	0.24671045
92	0x3d60050a	0.054692306
93	0xbe3efcbf	-0.18651102
94	0x3e9291e6	0.28626937
95	0xbe076d1f	-0.1322522
96	0xbdd1f179	-0.102511354
97	0x3d5e7677	0.054312196
98	0x3f04306e	0.516364
99	0x3d6c0572	0.05762238
100	0x3dc8f822	0.098129526
101	0xbe35c15d	-0.17749543
102	0x3ec39b5e	0.38204473
103	0x3d00a61c	0.031408414
104	0xbda16ac5	-0.07881693
105	0xbe268b6c	-0.16264123
106	0xbef3d01e	-0.47619718
107	0xbe3fca8c	-0.18729609
108	0xbe371acb	-0.17881314
109	0xbd16033f	-0.03662419
110	0xbea666c1	-0.3250027
111	0xbd4cdd8e	-0.05001598
112	0xbd8ec359	-0.06970853
113	0xbd8aefd2	-0.06784023
114	0x3eaa282b	0.3323377
115	0xbc52e6a6	-0.012872374
116	0xbecf3fbd	-0.40478316
117	0xbd8fa0b7	-0.07013076
118	0x3f478524	0.7793753
119	0x3dbf5a37	0.09343379
120	0xbd2d9948	-0.04238251
121	0x3de8719e	0.11349796
122	0x3de884f2	0.11353482
123	0x3e143686	0.14473924
124	0xbcd3993d	-0.025829906
125	0xbdd754cb	-0.1051422
126	0xbf61a237	-0.88138145
127	0xbcb03ba8	-0.021512821
128	0xbe0b5246	-0.13605604
129	0x3dcd072a	0.10011132
130	0xbf04b68b	-0.5184104
131	0xbd8b09da	-0.067889884
132	0xbd95d144	-0.07315305
133	0x3cc42c91	0.023947032
134	0x3f539f31	0.8266478
135	0x3c6fc1cc	0.014633607
136	0xbec07eec	-0.37596834
137	0x3e0567a0	0.13027811
138	0x3f6d5bf8	0.9271846
139	0x3e742079	0.23840512
140	0x3e5c6f5f	0.2152686
141	0x3d6204e8	0.05518046
142	0x3f5468ed	0.82972604
143	0x3dcd1f5e	0.100157484
144	0xbcb4baa4	-0.022061653
145	0xbdb053a6	-0.08609705
146	0xbf537172	-0.8259498
147	0x3c23c372	0.009995328
148	0xbd0d2fe0	-0.034469485
149	0xbe84f4df	-0.25968072
150	0xbf2af746	-0.6678356
151	0xbe7ac619	-0.24489631
152	0x3e6d2018	0.23156774
153	0x3db75413	0.08951583
154	0x3a58a30f	0.0008264044
155	0x3e023dcb	0.12718885
156	0xbd943e0b	-0.07238396
157	0xbe1a48a5	-0.15066774
158	0xbea80127	-0.3281338
159	0xbdf8d91c	-0.12150785
160	0x3e97b264	0.2962829
161	0xbd44211a	-0.04788313
162	0xbf02d5f0	-0.5110769
163	0xbe2a4627	-0.16628323
164	0xbf4a60a9	-0.7905374
165	0xbdc75fc9	-0.097350664
166	0x3f0c864e	0.5489243
167	0x3dda9dc2	0.10674621
168	0xbc7ade57	-0.015311799
169	0xbe82bef1	-0.25536302
170	0xbe9f2d60	-0.31089306
171	0xbe712eb9	-0.2355298
172	0xbe362e59	-0.17791118
173	0x3bdbe543	0.0067106797
174	0x3de81592	0.11332239
175	0x3cece9fa	0.028920162
176	0xbf0b7f66	-0.5449127
177	0x3da991cb	0.08279761
178	0xbee02762	-0.43780047
179	0xbec614d3	-0.38687763
180	0xbf03abda	-0.514341
181	0xbd926115	-0.07147423
182	0x3e8608b5	0.26178518
183	0x3d8f75fa	0.07004924
184	0x3f24489d	0.641733
185	0xbd9c21a6	-0.076236054
186	0x3f565537	0.8372378
187	0x3eaa0a74	0.332111
188	0xbdea47cf	-0.11439478
189	0x3cce4c22	0.025182787
190	0x3f6d29fd	0.92642194
191	0x3ecd5abb	0.40108284
192	0xbde77958	-0.11302441
193	0xbe7803e2	-0.24220231
194	0xbf24a1c8	-0.6430936
195	0xbe3ef699	-0.18648757
196	0xbe7fe92e	-0.24991295
197	0x3e05d213	0.13068418
198	0xbf31c194	-0.69436
199	0x3d599ad5	0.053126175
200	0x3d1dfafe	0.038569443
201	0xbe8a2498	-0.26981044
202	0x3d4055f9	0.04695699
203	0xbebc1194	-0.3673216
204	0xbe40e42f	-0.18837045
205	0x3e23b1b7	0.15985762
206	0x3e03c7f8	0.12869251
207	0x3c7e0d97	0.01550617
208	0x3ec85049	0.39123753
209	0x3eaff42d	0.3436598
210	0x3e620387	0.22071658
211	0x3dfbd151	0.12295783
212	0xbeb0be75	-0.34520307
213	0x3c453509	0.01203657
214	0x3f558418	0.83404684
215	0x3dda9d98	0.1067459
216	0xbdc23c80	-0.09484196
217	0xbeac926f	-0.3370547
218	0xbf75057b	-0.9571149
219	0xbec0abdc	-0.37631118
220	0x3d8eda77	0.069752626
221	0x3eb15864	0.3463775
222	0x3d7c10b5	0.06153937
223	0x3ea29017	0.31750557
224	0xbe9b5906	-0.30341357
225	0x3ea6f0cd	0.3260559
226	0x3f423f1a	0.75877535
227	0x3ea5715c	0.3231305
228	0xbd1fac79	-0.038982842
229	0xbd1514c6	-0.036396764
230	0x3edb1bd3	0.42794666
231	0x3dd8e0b3	0.10589733
232	0x3eb6ce13	0.35704097
233	0x3ea0e19f	0.31422135
234	0xbf2b2223	-0.66848963
235	0xbebcca5e	-0.36873144
236	0xbd8564fc	-0.06513402
237	0x3c3055f6	0.010762682
238	0x3e3e917b	0.18610184
239	0x3e3d269b	0.18471758
240	0xbe69bdd5	-0.22826321
241	0xbdad094f	-0.08449041
242	0x3f94e800	1.1633301
243	0x3dc8d938	0.09807056
244	0x3d4c2f69	0.0498499
245	0x3ec2de4d	0.38060227
246	0x3f3d257a	0.7388531
247	0x3e8af3f9	0.2713926
248	0xbe0c76a5	-0.13717134
249	0xbbd376e3	-0.0064533814
250	0xbee65d31	-0.44992974
251	0xbd114d8c	-0.035474345
252	0xbd06b9eb	-0.03289215
253	0xbe2302ea	-0.1591908
254	0xbe784266	-0.24244079
255	0xbd8e1ea4	-0.06939438

feature_ext.fc.0.bias f4 [64]
0	0x3ec01694	0.37517226
1	0x3ed33e78	0.41258597
2	0x3f010782	0.5040208
3	0x3ed93525	0.4242336
4	0x3ea7c276	0.3276555
5	0x3ed3e48d	0.41385308
6	0x3eb6fe3f	0.3574085
7	0x3ec8a307	0.3918688
8	0x3e9a1222	0.3009196
9	0x3ebf0668	0.37309575
10	0x3e16a496	0.14711222
11	0x3e8844ef	0.26615092
12	0x3c137564	0.009000156
13	0x3ecc518c	0.39905965
14	0x3ed3aee7	0.41344377
15	0x3ed9f409	0.42568997
16	0x3ecaed0f	0.39633986
17	0x3e9b66d2	0.30351883
18	0x3dec630d	0.1154233
19	0xbd781287	-0.060564544
20	0x3ee71fdb	0.4514149
21	0x3ea5bb8d	0.32369652
22	0x3ea9542c	0.3307203
23	0x3eb35f74	0.35033762
24	0x3eb1ae5a	0.34703332
25	0x3ed6ce77	0.41954395
26	0x3ebef964	0.37299645
27	0x3ece0d8b	0.40244707
28	0x3ebf3551	0.37345365
29	0xbdf55181	-0.11978436
30	0x3ec5091f	0.3848352
31	0x3eac9a90	0.33711672
32	0x3ee9cfc1	0.45666316
33	0x3ed13539	0.40860918
34	0x3e693e9e	0.22777793
35	0x3eec2606	0.4612276
36	0x3eaf6b3e	0.34261507
37	0x3ed8ca1b	0.42341694
38	0x3ec86397	0.3913848
39	0x3ec164c7	0.377722
40	0x3edb3631	0.42814782
41	0xbe859733	-0.26091918
42	0x3ebdcc2a	0.37069827
43	0x3ee2653a	0.44217855
44	0x3e8080da	0.25098306
45	0x3e4c5233	0.19953232
46	0x3e83b349	0.2572272
47	0xbead83e2	-0.3388968
48	0x3ec7f5fa	0.39054853
49	0x3f128dc4	0.5724757
50	0x3ebfbe63	0.3744994
51	0x3ee2d3cb	0.4430221
52	0x3ed4b466	0.41543883
53	0xbe817516	-0.25284642
54	0xbe5d3a33	-0.21604232
55	0x3edd335d	0.4320325
56	0xbea37993	-0.3192869
57	0x3ecc4d74	0.39902842
58	0x3e3083f1	0.17237832
59	0x3ec16ce3	0.37778386
60	0xbea182a1	-0.31544974
61	0x3ef1adb8	0.4720285
62	0x3eceb755	0.40374246
63	0x3ec9a882	0.39386374

feature_ext.fc.2.weight f4 [64, 64]
0	0x3db67494	0.08908954
1	0x3f0e1c10	0.5551157
2	0x3ba63f5c	0.005073471
3	0x3f0a15af	0.53939337
4	0x3e391fa5	0.18078478
5	0xbda3e851	-0.08003295
6	0x3edb4005	0.4282228
7	0x3f0fe953	0.562154
8	0x3e55da7e	0.2088413
9	0x3e8ec737	0.27886364
10	0xbe00f751	-0.12594344
11	0x3d1c2eeb	0.038130682
12	0x3eb6af88	0.35680795
13	0x3d8cee3e	0.068813786
14	0x3f0b1c57	0.5434012
15	0x3f15867a	0.5840832
16	0x3e5c8c22	0.21537831
17	0x3edeceb4	0.43517077
18	0xbdfac317	-0.12244242
19	0xbdf18dcb	-0.11794623
20	0x3ed0dcd4	0.40793478
21	0x3e0676ad	0.13131209
22	0x3d800fb0	0.06252992
23	0x3ea1c4e8	0.3159554
24	0x3e90a5da	0.28251535
25	0x3eb71824	0.35760605
26	0x3f01887a	0.5059887
27	0x3e58ba43	0.21164803
28	0x3e8861f2	0.26637226
29	0xbe50c3b1	-0.2038715
30	0x3f193575	0.59847194
31	0x3ea38548	0.31937623
32	0x3ec28d54	0.3799845
33	0x3ed550a3	0.41663083
34	0xbde92155	-0.11383311
35	0x3e4f94b3	0.20271568
36	0x3f26ff73	0.65233535
37	0x3eb1da97	0.34737083
38	0x3edfdcfe	0.4372329
39	0x3f14a773	0.5806801
40	0x3e8e521a	0.27797014
41	0xbf2a4134	-0.6650574
42	0x3f28d16b	0.65944546
43	0x3f38481d	0.71985036
44	0xbc343a47	-0.0110002225
45	0x3e0ddc95	0.13853677
46	0xbd30c4d6	-0.043156467
47	0x3db230a4	0.08700684
48	0x3f3c1f5d	0.73485357
49	0x3e7e0a27	0.2480856
50	0x3ee8ce9f	0.4547014
51	0x3e9909a6	0.29890174
52	0x3e367eef	0.17821859
53	0xbde64b9f	-0.11244892
54	0xbf241ac6	-0.64103353
55	0x3ec90e57	0.39268753
56	0xbf34e74c	-0.7066543
57	0x3e9f032e	0.31057113
58	0xbda58ca2	-0.08083464
59	0x3ebae0a1	0.36499503
60	0xbf193299	-0.5984283
61	0x3e645684	0.22298628
62	0xbc720812	-0.014772432
63	0x3f2e4e99	0.6808868
64	0x3dc56507	0.0963841
65	0x3ea339a8	0.31879926
66	0xbdd0fce7	-0.10204487
67	0xbe9039f3	-0.28169212
68	0x3c9aa114	0.018875636
69	0x3d91ee77	0.07125562
70	0xbe3040e7	-0.17212258
71	0xbe5f7fcc	-0.21826094
72	0xbddd030e	-0.10791598
73	0xbe0e8ef9	-0.13921727
74	0x3dcd07d0	0.10011256
75	0x3d7fa38e	0.062411837
76	0xbeb1cf25	-0.3472835
77	0x3e2a3214	0.16620666
78	0x3d95db59	0.07317228
79	0xbe2a9ee1	-0.1666217
80	0xbd501159	-0.050797794
81	0xbe1d8808	-0.15383923
82	0xbdbee0dd	-0.09320233
83	0xbdc654dd	-0.09684155
84	0xbe2f68e5	-0.17129858
85	0xbdf0c45c	-0.117562026
86	0xbeb34d52	-0.35019928
87	0x3ce32d49	0.027731555
88	0x3e8f6177	0.28004047
89	0xbe3a217c	-0.18176836
90	0x3d54b970	0.05193466
91	0x3e063c12	0.13108853
92	0xbe0434c1	-0.12910749
93	0x3e5e3a1f	0.21701859
94	0x3e938529	0.2881253
95	0x3e443e8a	0.19164482
96	0xbe69e70e	-0.22842047
97	0xbdd2c550	-0.102915406
98	0x3bb1773c	0.005415825
99	0xbd1ad85b	-0.03780399
100	0x3dae208c	0.085023016
101	0x3d5b9245	0.05360629
102	0xbd8c04d6	-0.0683686
103	0xbd94907a	-0.07254119
104	0xbbbc2842	-0.005742104
105	0xbeecee95	-0.46275774
106	0x3e9f541d	0.3111886
107	0x3df52669	0.11970217
108	0xbc1501ff	-0.009094714
109	0xbe43616a	-0.1908013
110	0x3d478cf5	0.04871841
111	0x3e86929f	0.26283738
112	0xbe17314d	-0.147649
113	0xbd061bd3	-0.03274138
114	0x3cfa69f2	0.030568097
115	0x3c92e95d	0.017933542
116	0xbd877ce1	-0.06615616
117	0xbe090bc5	-0.13383396
118	0x3e26518b	0.16242044
119	0xbdefec03	-0.117149375
120	0xbdee338a	-0.11630924
121	0x3e651fa4	0.22375351
122	0xbeb41240	-0.35170174
123	0xbe87138e	-0.26382107
124	0xbd84e9a5	-0.06489877
125	0xbe8be9a9	-0.27326706
126	0x3dad473e	0.08460854
127	0xbe07c086	-0.13257036
128	0xbe80812e	-0.25098556
129	0x3d8b5fd5	0.06805388
130	0xbf258abd	-0.6466482
131	0xbdec4cd4	-0.11538091
132	0x3edb6baa	0.4285558
133	0x3da0cfd2	0.078521386
134	0x3bde70b6	0.0067883385
135	0x3e3e1077	0.18560968
136	0x3ec35233	0.3814865
137	0x3ee25d85	0.44211975
138	0x3ea47999	0.32124022
139	0xbdc4bdd4	-0.09606519
140	0x3db50306	0.08838467
141	0x3e9a60ca	0.3015197
142	0x3ecf4ba9	0.40487412
143	0x3eca60d5	0.39527002
144	0x3ef5fa69	0.4804261
145	0xbecc83ab	-0.39944205
146	0xbf0c378a	-0.54772246
147	0x3e0337b6	0.12814221
148	0xbe44682d	-0.19180365
149	0x3e8fb055	0.28064218
150	0x3eee5a48	0.46553254
151	0x3ea09d75	0.3137013
152	0x3b9b45ca	0.004738544
153	0x3ec8ad9f	0.39194962
154	0xbed5c540	-0.41752052
155	0xbc84ad2a	-0.016195852
156	0x3e9febd1	0.312346
157	0x3f056856	0.5211233
158	0x3ebccac6	0.36873454
159	0xbef7dc1c	-0.48410118
160	0xbe1ca303	-0.15296559
161	0x3f40c290	0.7529688
162	0x3efb1673	0.49040565
163	0x3ead50c6	0.33850688
164	0xbd018e2f	-0.031629737
165	0xbe664534	-0.22487336
166	0x3ef9c7f2	0.4878536
167	0xbdbb5dcd	-0.091487505
168	0xbe12b9e7	-0.14328729
169	0x3f079a76	0.52970064
170	0x3e834ea3	0.25645933
171	0xbdeba699	-0.11506385
172	0xbe545e75	-0.20739157
173	0x3f0abeb3	0.54197234
174	0x3e7a3187	0.24432956
175	0x3ea023a3	0.3127719
176	0xbd9ec289	-0.077519484
177	0xbee9063b	-0.45512566
178	0xbd95167c	-0.07279679
179	0x3e3e8508	0.18605435
180	0x3dc382c8	0.09546429
181	0x3e8da71a	0.2766655
182	0xbbb9198a	-0.0056487964
183	0x3e4e6f58	0.20159662
184	0x3f120d04	0.5705111
185	0x3c9f5e5e	0.019454177
186	0xbd8f708e	-0.0700389
187	0x3dedc91c	0.11610624
188	0x3ed48281	0.41505817
189	0x3e240a5b	0.16019575
190	0xbe96a65c	-0.29423797
191	0x3d513da6	0.051084183
192	0x3e7ac21d	0.24488111
193	0x3e06555d	0.13118501
194	0x3ba239ae	0.0049507236
195	0x3e1595b6	0.14607891
196	0x3e8c804e	0.2744164
197	0x3e10c234	0.14136583
198	0x3f16b6c9	0.5887266
199	0x3e756ad2	0.2396653
200	0xbd57ac5f	-0.05265462
201	0x3eb8071d	0.35942927
202	0xbe52123b	-0.20514767
203	0x3e9cc4cf	0.30618903
204	0x3dd82f4c	0.10555896
205	0x3e670198	0.22559202
206	0x3f0c3a77	0.5477671
207	0x3e31a0d3	0.17346506
208	0x3efddd22	0.49582773
209	0x3e7db0dc	0.24774498
210	0x3f1d4815	0.61438113
211	0xbd8dd1c8	-0.06924778
212	0x3cc40c8e	0.023931768
213	0x3d5d7ad4	0.054072216
214	0xbd0ff2f4	-0.035143808
215	0x3e05b4ec	0.13057297
216	0x3ec7cad7	0.39021942
217	0x3eb8cd4e	0.36094135
218	0x3e47db24	0.1951719
219	0x3f10d5d1	0.5657626
220	0x3f09820d	0.53714067
221	0xbeadddb9	-0.33958223
222	0x3ee7a268	0.45241094
223	0x3db14262	0.0865524
224	0xbc3175af	-0.010831281
225	0x3e7fe936	0.24991307
226	0x3e0db961	0.13840248
227	0x3ec8f5fe	0.39250177
228	0x3ede1b33	0.43380126
229	0x3e6d132a	0.23151842
230	0x3e994ccf	0.29941413
231	0x3eccc35c	0.39992797
232	0x3e974d79	0.29551294
233	0xbeec0a4a	-0.461016
234	0x3d9f6142	0.07782222
235	0x3db9238c	0.09039983
236	0x3cecffd6	0.028930586
237	0x3e588da6	0.21147785
238	0xbe1c2919	-0.15250053
239	0x3d374405	0.044742603
240	0x3e4d383f	0.20040987
241	0x3dace2eb	0.08441719
242	0x3e95063f	0.29106328
243	0x3cd8a66b	0.026446542
244	0x3d3e4947	0.0464566
245	0xbe9dbbf8	-0.3080747
246	0xbe9a82b7	-0.30177853
247	0x3e851b74	0.25997508
248	0xbf0d4b05	-0.55192596
249	0x3e57d28a	0.21076408
250	0x3e1a2ad8	0.15055406
251	0x3dee7e52	0.116451874
252	0xbf2effc3	-0.6835901
253	0x3f057a9f	0.5214023
254	0x3e904c77	0.28183338
255	0x3f0dbdb1	0.5536757

feature_ext.fc.2.bias f4 [64]
0	0x3e9b1f17	0.30297157
1	0x00000000	0.0
2	0x3ce2f5ca	0.027705092
3	0x3e758b19	0.23978843
4	0x3e84a0d0	0.2590394
5	0x3e9eb492	0.3099714
6	0x3d827a0f	0.06370937
7	0xbd3ae4c3	-0.04562832
8	0x3e771a99	0.2413124
9	0x3d095739	0.033530448
10	0xbc5c1247	-0.013432092
11	0x3e8333d4	0.2562548
12	0x3d1f4364	0.038882628
13	0x3e7c419f	0.24634407
14	0xbcb3ddfd	-0.021956438
15	0x3e5fb344	0.21845728
16	0x3e7f1cc7	0.24913321
17	0x3e97591e	0.2956018
18	0x3d492a66	0.0491127
19	0x3e91d987	0.28486273
20	0x3e98e032	0.29858547
21	0x3eaa31b9	0.3324106
22	0x3e7bc230	0.24585795
23	0x3eaaf962	0.3339339
24	0x3e79db97	0.24400173
25	0x3e641262	0.22272637
26	0x3e92db85	0.28683105
27	0xbe279e7f	-0.16369055
28	0xbda8b87f	-0.08238315
29	0x3eb0fdd2	0.3456865
30	0x3e749f8f	0.23888992
31	0x3e89f5e9	0.26945427
32	0xbcc3df1a	-0.023910094
33	0xbe4b732a	-0.1986815
34	0x3e79904d	0.24371453
35	0x3ea1f36c	0.3163103
36	0x3eafa5a0	0.3430605
37	0xbd8355c9	-0.064128466
38	0xbd321147	-0.04347351
39	0xbd42d3a7	-0.04756513
40	0xbdaff9a0	-0.08592534
41	0xbcbd867b	-0.023135414
42	0xbd1a3ebe	-0.037657492
43	0xbdb2fdb2	-0.08739795
44	0x3e5a8f25	0.21343668
45	0x3e928826	0.28619498
46	0x3e6de7f1	0.2323301
47	0x3e7d4b13	0.2473567
48	0x3e7a3ce8	0.24437296
49	0xbe155bbd	-0.14585777
50	0x3e6dc762	0.2322059
51	0xbbbe3818	-0.0058050267
52	0xbe1150f2	-0.14191034
53	0x3e89c736	0.26909798
54	0x3ea77c88	0.32712197
55	0x3d0fc1cc	0.03509693
56	0x3e6475ab	0.22310512
57	0xbd1f4556	-0.038884483
58	0x3ea7b64d	0.32756272
59	0xbb44af5d	-0.0030011751
60	0xbd8da1e8	-0.06915647
61	0x3e9c969d	0.3058366
62	0x3e8ce2e2	0.27516848
63	0xbd53cdf1	-0.051710073

critic.weight f4 [1, 64]
0	0x3ecea1fd	0.40357962
1	0x3d0e2b11	0.03470904
2	0xbed6b6d2	-0.41936356
3	0x3ee0bcfa	0.43894178
4	0x3f02c42a	0.5108057
5	0x3f016f99	0.5056091
6	0xbf77226d	-0.96536905
7	0xbf3f63ea	-0.7476183
8	0x3ebb8907	0.3662798
9	0xbf81cee0	-1.0141258
10	0xbc1ae917	-0.009454987
11	0x3ec284bf	0.37991902
12	0xbf05672f	-0.5211057
13	0x3ee35260	0.44398785
14	0xbf8d95f3	-1.1061386
15	0x3f1a2fc1	0.60229117
16	0x3f1d7081	0.6149979
17	0x3ed34878	0.41266227
18	0xbf55b097	-0.8347258
19	0x3f096f1c	0.53685164
20	0x3ef947f9	0.48687723
21	0x3efe80f9	0.49707773
22	0x3f036d2a	0.51338446
23	0x3f05c294	0.5225003
24	0x3ef92c56	0.48666638
25	0x3f03d6a2	0.5149938
26	0x3ebc036e	0.36721367
27	0xbf6fdd80	-0.9369736
28	0xbf5784df	-0.8418712
29	0x3f4dd8a0	0.8040867
30	0x3ed77b3d	0.4208621
31	0x3f0f465f	0.5596675
32	0xbe324a73	-0.17411213
33	0xbf94ca2e	-1.16242
34	0x3edf6739	0.4363344
35	0x3f19685a	0.5992485
36	0x3ed6ffa4	0.41991913
37	0xbf5e8224	-0.8691733
38	0xbf93c3d8	-1.1544142
39	0xbf2acc4f	-0.66718
40	0xbf8532b2	-1.0406096
41	0xbda2a16f	-0.07940947
42	0xbf82b50a	-1.0211499
43	0xbfba9023	-1.4575237
44	0x3ed8f3ff	0.42373654
45	0x3efed41d	0.49771205
46	0x3ec73ceb	0.38913664
47	0x3f171ce3	0.5902845
48	0x3f18d1f6	0.59695375
49	0xbf711a95	-0.94181186
50	0x3efbcb42	0.4917851
51	0xbdf3736c	-0.11887249
52	0xbf7d4170	-0.98927975
53	0x3f113ca6	0.5673317
54	0x3e9dfcb9	0.30856875
55	0xbf5378f1	-0.82606417
56	0x3ef18499	0.47171476
57	0xbf6d74bf	-0.92756265
58	0x3ed3902d	0.41320935
59	0xbe139936	-0.14413914
60	0xbf9c66a2	-1.2218821
61	0x3ee7be81	0.4526253
62	0x3ed19bab	0.40939078
63	0xbf8a613b	-1.0810922

actor.weight f4 [2, 64]
0	0xbb866a9c	-0.0041020643
1	0xba101b81	-0.00054972625
2	0xbec673c5	-0.387602
3	0x3d9d44bd	0.076791264
4	0xbd6777ef	-0.056510862
5	0xbd6cedfd	-0.05784415
6	0x3e07c38c	0.13258189
7	0x3ca2b0c7	0.019859685
8	0x3d3cf326	0.046130322
9	0x3e7e1509	0.24812712
10	0xbc171cd4	-0.009223182
11	0xbc3cfb5b	-0.011534537
12	0xbec19edc	-0.37816513
13	0x3c828c31	0.01593599
14	0x3e7dc010	0.24780297
15	0x3ca5135c	0.020150833
16	0x3cbb2f48	0.022849694
17	0xbcb1e0f6	-0.021713715
18	0x3cbf4df3	0.023352599
19	0x3d32c943	0.04364897
20	0xbc983d9d	-0.018584067
21	0xbd053a0b	-0.032526057
22	0xbd89bc19	-0.0672533
23	0xbd36447d	-0.04449891
24	0x3d3f7428	0.046741635
25	0x3cd02fbd	0.025413388
26	0xbadfa2bb	-0.0017062047
27	0xbd57f9f4	-0.05272861
28	0x3ceff712	0.029292617
29	0xbd8d992a	-0.06913979
30	0xbc0184e9	-0.007905223
31	0x3c4af903	0.012388471
32	0xbc4d8cc0	-0.012545764
33	0xbcdecbe9	-0.027196841
34	0x3d2e6791	0.042579237
35	0x3c8caacb	0.017171284
36	0x3d2c766c	0.042105123
37	0x3d030895	0.031990606
38	0x3d9ef1ab	0.07760938
39	0x3d28a7e8	0.041175753
40	0xbe00638d	-0.12537976
41	0xbb992b90	-0.0046743825
42	0x3d336729	0.043799553
43	0x3be0bfbd	0.0068587945
44	0xbd4c4691	-0.049871985
45	0x3d5c139c	0.05372964
46	0x3d3219a7	0.043481495
47	0xbc28297e	-0.010263799
48	0x3c8b5ad3	0.017011082
49	0xbdc109c1	-0.094256885
50	0x3ca99be5	0.02070422
51	0xbbd161a0	-0.0063898116
52	0xbc881937	-0.016613586
53	0x3d78359e	0.06059801
54	0x3d9e31f2	0.0772437
55	0xbd919848	-0.071091235
56	0x3c14ba33	0.0090775965
57	0x3cf96aab	0.030446371
58	0xbd26f00b	-0.040756267
59	0xbad7ea10	-0.0016472954
60	0xbd2d3891	-0.042290274
61	0xbd250c69	-0.04029504
62	0xbc191293	-0.009342807
63	0x3d62917e	0.055314533
64	0x3aad4d4c	0.0013221889
65	0x3ad627d0	0.0016338769
66	0x3ec81e3c	0.39085567
67	0xbd97bfb0	-0.07409608
68	0x3d652632	0.05594463
69	0x3d63ac42	0.0555842
70	0xbe078017	-0.13232456
71	0xbca6398e	-0.020291116
72	0xbd3f55b6	-0.0467126
73	0xbe7db5f5	-0.24776442
74	0x3c2eb147	0.010662383
75	0x3c441539	0.0119679505
76	0x3ec18bd2	0.37801987
77	0xbc84068b	-0.016116401
78	0xbe80552c	-0.2506498
79	0xbcb1e7ff	-0.02171707
80	0xbcb9e44c	-0.022691868
81	0x3caeba02	0.02132893
82	0xbcacf503	-0.021112924
83	0xbd400c12	-0.04688651
84	0x3c930198	0.017945096
85	0x3d07dbbf	0.03316855
86	0x3d8b3c34	0.06798592
87	0x3d3483ac	0.044070885
88	0xbd43a663	-0.0477661
89	0xbcd2d6ba	-0.025737155
90	0x3a4beb05	0.0007778856
91	0x3d535d89	0.051602874
92	0xbcdf2926	-0.0272413
93	0x3d8ca1b3	0.06866779
94	0x3bfb1774	0.007662708
95	0xbc6a5586	-0.014302617
96	0x3c2f6f22	0.0107076485
97	0x3cb61560	0.02222699
98	0xbd23e993	-0.040017676
99	0xbc871bc1	-0.016492726
100	0xbd2f7b1f	-0.042842027
101	0xbd028495	-0.03186472
102	0xbda13b27	-0.078726105
103	0xbd25a9d0	-0.04044515
104	0x3dfa16e1	0.12211395
105	0x3c285048	0.010273047
106	0xbd385688	-0.045004398
107	0xbc00d31e	-0.007862834
108	0x3d4912bf	0.049090143
109	0xbd57e703	-0.052710544
110	0xbd279259	-0.040911052
111	0x3bef44ad	0.007301888
112	0xbc89069f	-0.01672679
113	0x3dc49dd9	0.096004196
114	0xbcbc4195	-0.02298049
115	0x3badf09b	0.0053082234
116	0x3c8bf85d	0.017086202
117	0xbd7ca344	-0.06167914
118	0xbda05efe	-0.07830618
119	0x3d91a73e	0.07111977
120	0xbc243575	-0.010022511
121	0xbd02a0c3	-0.031891596
122	0x3d2443b6	0.040103637
123	0x3b6c40a4	0.003604927
124	0x3d359c6b	0.044338625
125	0x3d29b978	0.041436642
126	0x3c232ed5	0.009959896
127	0xbd5d8e5c	-0.054090843

actor.bias f4 [2]
0	0x3d1c4df0	0.038160264
1	0xbd1c4d8c	-0.038159892

exp_avg f4 [64, 4]
0	0xbbe0ef8c	-0.0068644937
1	0xbaa44493	-0.0012532644
2	0xb94464f3	-0.00018729623
3	0xba9a8276	-0.0011788148
4	0xbb50a50f	-0.0031836664
5	0x3a94cb85	0.0011352157
6	0xb96b629c	-0.00022448081
7	0xb93c0524	-0.00017930992
8	0xbc00417b	-0.007828112
9	0xbac821a6	-0.0015268817
10	0xb95a5e86	-0.00020825313
11	0xbaa2b04d	-0.0012412161
12	0xbbd088a0	-0.006363943
13	0x3a951363	0.0011373576
14	0xb9a34347	-0.00031139908
15	0xba6ec8f4	-0.0009108924
16	0xbbab90b1	-0.0052357544
17	0xb8c38843	-9.323705e-05
18	0xb9558fcc	-0.00020366831
19	0xba1a86b9	-0.0005894709
20	0xbba8e472	-0.005154186
21	0x394f7390	0.00019784109
22	0xb97284aa	-0.0002312834
23	0xba84b1ad	-0.0010123752
24	0xbc080e10	-0.008304134
25	0xb8350f56	-4.3168046e-05
26	0xb93b1e57	-0.00017845012
27	0xbb0f432d	-0.0021860108
28	0xbba23f86	-0.0049514202
29	0x3a7deb42	0.000968624
30	0xb999a6a1	-0.00029306582
31	0xb9625435	-0.00021584409
32	0xbb63ed87	-0.0034779029
33	0x3af14352	0.0018406904
34	0xb9b57d24	-0.00034616247
35	0xb8866ab5	-6.409494e-05
36	0xbbb49891	-0.0055113514
37	0x3ad523c8	0.0016261274
38	0xb9e238ce	-0.00043148402
39	0xb97aab40	-0.00023905654
40	0x3b9a00c1	0.004699797
41	0x3a342e63	0.0006873367
42	0xb9562529	-0.00020422474
43	0x3b8b1922	0.0042449394
44	0xba508019	-0.00079536584
45	0x3b7fb9b4	0.00390206
46	0xb8d59aae	-0.00010185443
47	0xbaadbb91	-0.0013254752
48	0x3a2f72b3	0.0006692812
49	0x3a87bcd7	0.0010355961
50	0xb9b1dc64	-0.00033924275
51	0xb8f96069	-0.00011891203
52	0xbb2a4b34	-0.0025984766
53	0x3a8ce0e9	0.0010748181
54	0xb990e3fb	-0.0002763568
55	0xb9f35d02	-0.00046417868
56	0xbbbcf9d6	-0.0057670875
57	0x3a9f0b18	0.0012134043
58	0xb9dac566	-0.00041727273
59	0xba535aad	-0.0008062523
60	0xbbb11525	-0.005404132
61	0x3aad999b	0.001324463
62	0xb966fb24	-0.00022028066
63	0xbab9759d	-0.0014149431
64	0xbbd0ec43	-0.006375821
65	0x3a8c356a	0.0010697071
66	0xb96f04a4	-0.00022794545
67	0xbabf2f50	-0.0014586244
68	0xbb2c330d	-0.0026275546
69	0xba16a1fb	-0.0005746183
70	0xb90baa08	-0.00013319415
71	0x39152a85	0.00014225587
72	0x3ab7bd12	0.0014018139
73	0xb9048c5f	-0.00012640793
74	0xb8e34c38	-0.000108384
75	0x3ac64ea0	0.0015129633
76	0x3bf4e43a	0.007473496
77	0xbac0ee73	-0.0014719501
78	0xba8eded0	-0.0010900144
79	0x3c19aaea	0.009379128
80	0xbbe25594	-0.0069071744
81	0xba8d4d27	-0.001078044
82	0xb94d0320	-0.00019551488
83	0xba838b01	-0.0010035933
84	0xbaaed5a9	-0.0013338822
85	0x3abf3fcd	0.0014591158
86	0xb9994899	-0.00029236524
87	0xb9839ce5	-0.00025103163
88	0x3a979136	0.0011563662
89	0x3b1121bd	0.0022145354
90	0xb9257145	-0.00015777822
91	0x396d8e1b	0.0002265502
92	0xbbc3e3e2	-0.0059780935
93	0x3aa67eeb	0.001270262
94	0xb961cda6	-0.00021534282
95	0xbaa74bcd	-0.0012763679
96	0xbbad79cf	-0.0052940617
97	0x3afe0468	0.0019379975
98	0xb9c01463	-0.00036636283
99	0xba80eb95	-0.0009835834
100	0xbb5e1e78	-0.0033892673
101	0x3ab5bd39	0.0013865597
102	0xb9abaeff	-0.00032746044
103	0xb98bb9bf	-0.00026650538
104	0xbc165a92	-0.009176867
105	0xba95d28e	-0.0011430548
106	0xb9624ba6	-0.00021581221
107	0xbaf3f0d5	-0.0018611202
108	0xbbe286a3	-0.0069130226
109	0xb8b29257	-8.514959e-05
110	0xb9925795	-0.00027912544
111	0xba9e37e3	-0.0012071099
112	0xbbd9b51c	-0.0066439044
113	0x3aef6357	0.0018263859
114	0xb9ac8348	-0.0003290421
115	0xbad1c722	-0.0016004781
116	0x380d3a54	3.3671342e-05
117	0x3ba60ec8	0.00506768
118	0x3a07d5e2	0.00051817123
119	0xbb95c861	-0.004571006
120	0xbbc6b2a0	-0.006063774
121	0x3af75436	0.0018869701
122	0xb9d04ef2	-0.0003973167
123	0xba6c13cf	-0.0009005637
124	0xbbcd873b	-0.0062722242
125	0xb9912bdc	-0.00027689233
126	0xb8742eee	-5.821784e-05
127	0xbaa63794	-0.0012681358
128	0xbba1cf8b	-0.004938071
129	0x39439f92	0.00018656094
130	0xb9a454ce	-0.00031343702
131	0xb9f81c1e	-0.00047323195
132	0xbb9eb586	-0.0048434166
133	0x3b02da7a	0.0019966648
134	0xb9a935ad	-0.00032274183
135	0xba83c85f	-0.0010054222
136	0x3acd3723	0.0015656691
137	0xbacf348f	-0.001580851
138	0x39ff9a45	0.0004875233
139	0xba8e9136	-0.0010877016
140	0xbb048c9c	-0.0020225411
141	0x3b180861	0.0023198354
142	0xb9d05cfb	-0.00039742127
143	0xb823c710	-3.904762e-05
144	0xbc131823	-0.008977923
145	0xb97ce789	-0.00024118846
146	0xb977b8b1	-0.00023624559
147	0xbaa110a5	-0.0012288286
148	0xbc0e49f7	-0.008684627
149	0xba1cdb94	-0.00059836474
150	0xb96d11fd	-0.00022608782
151	0xbae86c34	-0.0017732442
152	0xbba9a8ba	-0.0051775845
153	0x3b325b2d	0.002721499
154	0xb9b6a1ba	-0.0003483424
155	0xba7abf54	-0.0009565253
156	0xbc129f36	-0.008949092
157	0x394e4894	0.00019672728
158	0xb98170e8	-0.0002468892
159	0xbae8c21d	-0.0017758046
160	0xbba6376f	-0.005072526
161	0x3a1bfcd4	0.0005950455
162	0xb98525a6	-0.00025395787
163	0xb9490e92	-0.00019174282
164	0xb8d46fd4	-0.000101297774
165	0x3b896f59	0.004194182
166	0x3a2e804a	0.000665669
167	0xbb6ec956	-0.0036435924
168	0xbc13f364	-0.009030197
169	0xb98b77c3	-0.00026601375
170	0xb9a27a4a	-0.0003099016
171	0xbaad443d	-0.0013219189
172	0xbbcf8959	-0.006333512
173	0x3a92ec21	0.0011209288
174	0xb96a72e1	-0.00022358775
175	0xbb0af7e3	-0.002120488
176	0xba279502	-0.00063927483
177	0xba150f57	-0.0005686185
178	0x39a6f338	0.000318432
179	0xba8141dd	-0.0009861548
180	0xb84aeec0	-4.8382906e-05
181	0x3a152f00	0.00056909025
182	0xb9444d41	-0.00018720796
183	0x3a217006	0.00061583554
184	0x3b49fba9	0.0030820167
185	0x3abfa0a8	0.0014620023
186	0xb8f10a6f	-0.00011493719
187	0x3ab740ef	0.0013981144
188	0x37a1dd37	1.9295707e-05
189	0xb9834fd2	-0.00025045738
190	0x383f7c1e	4.565354e-05
191	0x39ac545c	0.0003286925
192	0xbbfa9bdb	-0.007647974
193	0xba4bf5da	-0.000778047
194	0xb9170b64	-0.00014404726
195	0xbac3aefb	-0.0014929468
196	0xbbc17b59	-0.0059045968
197	0xbabac846	-0.001425036
198	0xb8d33077	-0.00010070291
199	0xba9884b9	-0.0011636234
200	0xbbf4aa0c	-0.00746656
201	0x3a0fe786	0.0005489517
202	0xb8e1558f	-0.000107447726
203	0xbb183bd3	-0.0023229017
204	0xbbbc3c8c	-0.0057445224
205	0x3a395072	0.0007069177
206	0xb983c4d4	-0.00025132915
207	0xba958a4a	-0.0011409011
208	0xbb2bf805	-0.002624036
209	0x3ae031fd	0.0017104741
210	0xb9ba2721	-0.00035505838
211	0x39cceaaa	0.0003908475
212	0x96332198	-1.4470105e-25
213	0x955508e6	-4.3022027e-26
214	0x15f4f3d2	9.8935496e-26
215	0x15f3b4be	9.843208e-26
216	0x37258c1a	9.867386e-06
217	0x39acc407	0.00032952448
218	0xb7b0a870	-2.105927e-05
219	0xba3ab7f4	-0.0007122748
220	0xbb8b8f69	-0.004259039
221	0x3b3080e9	0.0026932305
222	0xb9e67f08	-0.00043963664
223	0xba01e94a	-0.0004955722
224	0x80000004	-6e-45
225	0x80000004	-6e-45
226	0x00000004	6e-45
227	0x00000004	6e-45
228	0xbbaee4e1	-0.005337343
229	0x3acb2554	0.0015498796
230	0xb9bd7d6b	-0.00036142333
231	0xba4c5d32	-0.00077958696
232	0xb79ad01d	-1.845514e-05
233	0x3a8c5207	0.0010705598
234	0xb6d64853	-6.3861166e-06
235	0xb9899b03	-0.0002624617
236	0xbba59c92	-0.005054065
237	0x3acaac5d	0.0015462745
238	0xb9cac457	-0.00038674727
239	0xba39ffe3	-0.000709532
240	0x95e1af4f	-9.1153364e-26
241	0x9597fc8d	-6.138687e-26
242	0x15a26cd2	6.560297e-26
243	0x163d3c05	1.5286237e-25
244	0xbb839a3c	-0.004016189
245	0x3b213df2	0.0024603573
246	0xb9d80540	-0.00041202642
247	0xb9912160	-0.00027681421
248	0xbbce4709	-0.006295089
249	0xba22cb02	-0.000621006
250	0xb97be86a	-0.00024023806
251	0xba300f8a	-0.00067161827
252	0xbbe6970a	-0.007037048
253	0x3a107a6c	0.00055114063
254	0xb9959833	-0.00028532892
255	0xba87a81d	-0.0010349784

exp_avg_sq f4 [64, 4]
0	0x3b142d1d	0.0022609897
1	0x3a0abbf0	0.0005292287
2	0x37320520	1.061082e-05
3	0x39deb28a	0.00042476162
4	0x39599df6	0.00020753578
5	0x38b42bdb	8.5912376e-05
6	0x3611e1bd	2.173808e-06
7	0x38b2dc78	8.528767e-05
8	0x3b4ae1e0	0.0030957386
9	0x3a3b013e	0.0007133669
10	0x3796197c	1.789326e-05
11	0x3a0c4f15	0.00053523603
12	0x3ab6ae56	0.0013937454
13	0x39d630ce	0.00040853623
14	0x372e18c7	1.0376977e-05
15	0x39b875d0	0.00035182992
16	0x3a94dcce	0.0011357309
17	0x39987552	0.0002907911
18	0x36f89068	7.407787e-06
19	0x397859dc	0.00023684598
20	0x3ab6cee4	0.0013947156
21	0x39b3b20c	0.00034274196
22	0x370d3791	8.4171925e-06
23	0x398ca8ff	0.00026828793
24	0x3b475dc3	0.0030420877
25	0x3a49b55e	0.00076945673
26	0x37b0c5c5	2.1072929e-05
27	0x3a2a684f	0.00065005285
28	0x3a31c6f9	0.00067816634
29	0x39710b10	0.00022987672
30	0x36c8c82d	5.983768e-06
31	0x395f3fd1	0.0002129071
32	0x399e5f70	0.00030207215
33	0x390f1344	0.0001364472
34	0x367b10f3	3.741178e-06
35	0x390ce1a5	0.000134355
36	0x3a52e036	0.0008044274
37	0x399981de	0.00029279193
38	0x3706455c	8.003171e-06
39	0x39909ca3	0.00027582524
40	0x3b23493b	0.0024915475
41	0x3a175f49	0.00057743915
42	0x376eabe8	1.42259305e-05
43	0x39d9449c	0.00041440583
44	0x3899153d	7.2995645e-05
45	0x37e1cc4d	2.6917225e-05
46	0x351594b4	5.5723217e-07
47	0x37a6c5ca	1.9880845e-05
48	0x38492c43	4.7963356e-05
49	0x3804a115	3.162127e-05
50	0x35526536	7.837838e-07
51	0x37d981f8	2.5928937e-05
52	0x3a2ed441	0.00066692015
53	0x393d8674	0.00018074532
54	0x369a1390	4.591835e-06
55	0x3912d36f	0.0001400241
56	0x3acf7095	0.0015826399
57	0x39e72e32	0.00044094172
58	0x373f1d19	1.1391262e-05
59	0x39bca91f	0.0003598416
60	0x3abe0b5b	0.0014499234
61	0x39db024e	0.00041772652
62	0x3736b9b5	1.0891284e-05
63	0x39bb1310	0.00035681622
64	0x3ace2867	0.0015728594
65	0x39e75dad	0.00044129547
66	0x373eabb5	1.1364861e-05
67	0x39c632f6	0.00037803472
68	0x3982a554	0.0002491871
69	0x38839c19	6.275642e-05
70	0x35ef012a	1.7807226e-06
71	0x38645432	5.443785e-05
72	0x39d44976	0.00040490524
73	0x38c5070c	9.3950046e-05
74	0x361931e3	2.2827815e-06
75	0x388087e7	6.1288294e-05
76	0x3bcc57c2	0.0062360475
77	0x3ac26238	0.0014830297
78	0x381f6d21	3.801019e-05
79	0x3a92554e	0.0011164339
80	0x3b34c293	0.0027581796
81	0x3a2c13a2	0.0006564205
82	0x37873a47	1.6120392e-05
83	0x3a022491	0.0004964555
84	0x39257d99	0.00015782415
85	0x38392638	4.414303e-05
86	0x3588223b	1.0142752e-06
87	0x3812b836	3.4980672e-05
88	0x39908b4e	0.0002756961
89	0x389e4792	7.547358e-05
90	0x361c1bde	2.3262032e-06
91	0x38851c38	6.34719e-05
92	0x3aa010be	0.0012212021
93	0x39c0a3e4	0.00036743202
94	0x371f096b	9.479331e-06
95	0x39a8d034	0.0003219858
96	0x3ab932bd	0.0014129501
97	0x39df6228	0.00042607007
98	0x3738ee1d	1.1022695e-05
99	0x39bc4840	0.00035911985
100	0x39d49339	0.0004054548
101	0x3912fe09	0.0001401828
102	0x36815224	3.854062e-06
103	0x3904d554	0.00012667972
104	0x3b8c6996	0.0042850478
105	0x3a87a8dd	0.0010350008
106	0x37da6998	2.6036796e-05
107	0x3a54fe12	0.00081250176
108	0x3b1aa77d	0.0023598366
109	0x3a1bc054	0.000594144
110	0x3788318c	1.6235535e-05
111	0x3a014ae1	0.00049321173
112	0x3b045c39	0.002019657
113	0x3a188b59	0.0005819104
114	0x377795a5	1.4757189e-05
115	0x3a009640	0.00049052015
116	0x37101b40	8.5894135e-06
117	0x3812a89f	3.4966153e-05
118	0x361b9af0	2.3186985e-06
119	0x38640586	5.436458e-05
120	0x3aa18150	0.0012321863
121	0x39d1f7e7	0.00040048288
122	0x372e43b8	1.0386975e-05
123	0x39bce2ec	0.00036027224
124	0x3ac067dc	0.001467939
125	0x39c8f0ec	0.00038326473
126	0x3723ce4a	9.7635875e-06
127	0x39a9c588	0.00032381364
128	0x3a8f2bfb	0.0010923141
129	0x398ef368	0.00027265702
130	0x36e6d7fe	6.879679e-06
131	0x3965ee85	0.00021927997
132	0x3a891fc0	0.0010461733
133	0x39b3891e	0.000342437
134	0x371ad13d	9.227832e-06
135	0x399d18dd	0.00029963898
136	0x38ef1caf	0.00011401751
137	0x389357dd	7.025872e-05
138	0x36394cd6	2.7611873e-06
139	0x38c672bf	9.462749e-05
140	0x391c09e7	0.00014881008
141	0x38b898e2	8.80228e-05
142	0x3640a77a	2.8707714e-06
143	0x38bfccc4	9.14573e-05
144	0x3b3e5ae1	0.0029045867
145	0x3a4ce3e8	0.0007815943
146	0x37a6f14f	1.990111e-05
147	0x3a2d0e34	0.00066015427
148	0x3b6abadb	0.003581694
149	0x3a636934	0.0008675039
150	0x37b5163e	2.1587239e-05
151	0x3a324d89	0.0006801715
152	0x3a0d1aea	0.00053827337
153	0x396d2623	0.00022616288
154	0x36cb898c	6.065884e-06
155	0x396b0201	0.00022412093
156	0x3b526352	0.0032102657
157	0x3a56abe1	0.0008189064
158	0x37ac9845	2.0574904e-05
159	0x3a2e0454	0.0006638218
160	0x3a09fc85	0.00052637636
161	0x39386abd	0.0001758737
162	0x369aedc3	4.6172368e-06
163	0x392f0bac	0.00016693649
164	0x374f59bf	1.2359057e-05
165	0x38231ec4	3.889088e-05
166	0x365e022a	3.3081838e-06
167	0x389691d1	7.179718e-05
168	0x3b6a0179	0.0035706444
169	0x3a6e782e	0.00090968877
170	0x37bfe806	2.2877019e-05
171	0x3a407c89	0.0007342776
172	0x3b1270b0	0.0022345
173	0x3a15dba3	0.00057166273
174	0x3770a294	1.4342968e-05
175	0x39ec9aa7	0.00045128653
176	0x3798d256	1.8217757e-05
177	0x37d2c371	2.512496e-05
178	0x3559f2a8	8.119191e-07
179	0x37d500d7	2.539197e-05
180	0x3607d44c	2.024014e-06
181	0x36c9abe8	6.0102793e-06
182	0x347f0fda	2.3754492e-07
183	0x370110c3	7.692902e-06
184	0x3a5ab0d7	0.0008342391
185	0x39421a7a	0.00018511145
186	0x369f0baf	4.7399294e-06
187	0x390b5e9b	0.00013291316
188	0x37c8cde2	2.393773e-05
189	0x37808a6c	1.5323247e-05
190	0x35931b92	1.0960377e-06
191	0x381b790b	3.706761e-05
192	0x3b2c8ae8	0.0026327912
193	0x3a2a9b65	0.0006508141
194	0x3796580a	1.792239e-05
195	0x3a0eb332	0.00054435723
196	0x3b003af1	0.0019566382
197	0x39e8d1c9	0.0004440679
198	0x37378a5d	1.0939865e-05
199	0x39abf05b	0.0003279474
200	0x3b2bf333	0.0026237487
201	0x3a34687f	0.0006882026
202	0x3791bd9a	1.7373637e-05
203	0x3a15133e	0.0005686766
204	0x3ac95991	0.0015361776
205	0x39d33237	0.0004028247
206	0x3725f418	9.891599e-06
207	0x39ac0fc7	0.00032818152
208	0x38bdd6b4	9.052214e-05
209	0x387bbb65	6.0017588e-05
210	0x35d40640	1.579705e-06
211	0x38849786	6.322474e-05
212	0x36bd4c49	5.6415197e-06
213	0x376cd4cf	1.41162445e-05
214	0x35c8d4e1	1.4963117e-06
215	0x3800d2ac	3.071378e-05
216	0x388bfb07	6.674794e-05
217	0x38ee5a97	0.00011365598
218	0x36a18103	4.813193e-06
219	0x3927f580	0.00016017817
220	0x39e70ad3	0.00044067818
221	0x394a84c6	0.00019313683
222	0x36b15e7d	5.286011e-06
223	0x39479304	0.00019032886
224	0x36e0e67e	6.702553e-06
225	0x3776a7cc	1.4701811e-05
226	0x360f0dc6	2.1316678e-06
227	0x3813fb95	3.5281835e-05
228	0x3a8da4b7	0.0010806535
229	0x39b11517	0.00033775784
230	0x371669a6	8.965295e-06
231	0x399a8817	0.00029474564
232	0x37b82b83	2.1954771e-05
233	0x370ad792	8.275632e-06
234	0x3468bfb6	2.1676428e-07
235	0x36f106b9	7.1831423e-06
236	0x3a88c64e	0.0010435076
237	0x39a3e31e	0.00031258998
238	0x370892c1	8.1404005e-06
239	0x398bce80	0.00026666
240	0x36844089	3.9414194e-06
241	0x37b329b0	2.1357875e-05
242	0x35f489cc	1.8219521e-06
243	0x3852fab4	5.0301387e-05
244	0x39d701f0	0.0004100944
245	0x394a92ea	0.00019318951
246	0x36b9bbc2	5.5352875e-06
247	0x394a3d16	0.00019286977
248	0x3b00b0d0	0.0019636638
249	0x39fa4acf	0.00047739453
250	0x37479d04	1.1897882e-05
251	0x39bf9571	0.000365417
252	0x3b092b80	0.002093047
253	0x3a11faa1	0.00055686577
254	0x376ab2c0	1.3989105e-05
255	0x39eee6d3	0.00045566875

exp_avg f4 [64]
0	0xbac62471	-0.0015117062
1	0x3aecd17c	0.0018067802
2	0xbb20b214	-0.0024520205
3	0x3aae0cd9	0.0013278975
4	0x38af80f2	8.368668e-05
5	0x38e1c292	0.000107650776
6	0xba0fa235	-0.0005479188
7	0x3afbb8c6	0.0019204847
8	0x3b11fb80	0.002227515
9	0x3b0971ef	0.002097245
10	0xba2c881c	-0.0006581561
11	0x392f28bc	0.00016704475
12	0x3afa6894	0.0019104653
13	0x3aca803c	0.0015449594
14	0x3a807a83	0.0009802136
15	0x3ac3a569	0.0014926615
16	0x3a7d8fa2	0.0009672587
17	0xb95c12b6	-0.00020987805
18	0x3aaae579	0.0013038359
19	0xbb8592e9	-0.004076351
20	0xba25265f	-0.0006299968
21	0x3a5ad4ba	0.0008347739
22	0x3b1d9fd3	0.0024051561
23	0x3a8ab509	0.0010582517
24	0x3b1384a7	0.0022509487
25	0x3ab8440a	0.0014058363
26	0xbab3cd08	-0.001371772
27	0x394b7e20	0.00019406574
28	0x3af79b52	0.0018890894
29	0xbb4c9b76	-0.0031220592
30	0x3b119e66	0.0022219657
31	0xb8bd5f73	-9.030001e-05
32	0x39ba1a09	0.00035496082
33	0x3afaa497	0.0019122538
34	0xbb4a3016	-0.0030851415
35	0x3b1ca395	0.0023901213
36	0x3925f23e	0.00015825868
37	0xba8fddf9	-0.0010976187
38	0x3b23739d	0.0024940737
39	0xba20da52	-0.0006136048
40	0x3a9214a4	0.0011145067
41	0xba979886	-0.0011565841
42	0xb90dbd28	-0.00013517274
43	0x3a2d0918	0.00066007813
44	0xbb4dd58e	-0.0031407806
45	0x3b099831	0.0020995254
46	0x3b290875	0.0025792394
47	0x39effec7	0.00045775456
48	0xba8b5d65	-0.0010632692
49	0xbb052297	-0.0020314807
50	0x3a26a644	0.0006357173
51	0x3a2336eb	0.000622614
52	0x3b1c01bc	0.0023804745
53	0x1711d2b8	4.711799e-25
54	0x3a4a8550	0.00077255536
55	0x3b3a6d7b	0.0028446603
56	0x00000004	6e-45
57	0x3adacb4f	0.0016692671
58	0x3ab06002	0.0013456347
59	0x3adda77f	0.001691088
60	0x16a249a2	2.621898e-25
61	0x3b4e2413	0.0031454607
62	0xba2235bc	-0.00061878166
63	0x3a3a0293	0.00070957205

exp_avg_sq f4 [64]
0	0x3ae2a391	0.0017291178
1	0x39d60ce3	0.00040826862
2	0x3b05e768	0.0020432118
3	0x3abf9c20	0.0014618672
4	0x3a73298a	0.0009275904
5	0x3a8778c4	0.0010335674
6	0x3b28a1a1	0.0025731104
7	0x3a75a624	0.0009370765
8	0x3a205642	0.0006116369
9	0x3a9a6fb5	0.0011782559
10	0x3abf0a4f	0.0014575216
11	0x390bf411	0.00013346995
12	0x38c49b93	9.374986e-05
13	0x3a09420a	0.0005235976
14	0x3ab5b1a4	0.0013862145
15	0x3ab806a5	0.0014040066
16	0x3ac685ca	0.0015146073
17	0x394e2d2e	0.00019662522
18	0x39500c5b	0.00019841029
19	0x3b83f822	0.0040273825
20	0x3af40a4a	0.0018618789
21	0x3918d061	0.00014573477
22	0x39661bcb	0.00021944863
23	0x3aacbaac	0.0013178191
24	0x3abe53d2	0.001452083
25	0x3a08915a	0.00052096474
26	0x3b478143	0.0030442036
27	0x3affced2	0.0019516593
28	0x3b025348	0.0019886065
29	0x390f3a94	0.00013659365
30	0x3ac97615	0.0015370274
31	0x3aa50abb	0.0012591699
32	0x3a613847	0.0008591455
33	0x3a9c662d	0.0011932306
34	0x39cb09aa	0.00038726378
35	0x39c53712	0.000376158
36	0x3b29bdfd	0.0025900595
37	0x3b295dc6	0.0025843247
38	0x3a8a16d2	0.0010535365
39	0x3b27bafd	0.0025593631
40	0x3a4158de	0.0007375608
41	0x392f80b9	0.00016737253
42	0x3b39c16c	0.0028344048
43	0x3ae40f0b	0.0017399503
44	0x38cc8332	9.751915e-05
45	0x3816fac3	3.5996327e-05
46	0x39f4342e	0.00046578184
47	0x3852e614	5.028218e-05
48	0x3b093389	0.0020935258
49	0x3a9d585f	0.0012004486
50	0x3b12980a	0.0022368454
51	0x3aa947f6	0.0012915123
52	0x39b49b09	0.00034447786
53	0x388c57df	6.6920875e-05
54	0x39739d10	0.00023232796
55	0x3a69f39b	0.00089245447
56	0x389d1557	7.490318e-05
57	0x3a9d4e8c	0.0012001558
58	0x382bcb2c	4.0958796e-05
59	0x3a8f8d92	0.0010952225
60	0x389ab0fc	7.376258e-05
61	0x3a67e7bc	0.0008846482
62	0x3ab50d4b	0.0013813166
63	0x3aeb4150	0.0017948542

exp_avg f4 [64, 64]
0	0x391f46af	0.00015189753
1	0x37c99adc	2.403318e-05
2	0x3914e14e	0.00014198312
3	0xb7066d64	-8.012492e-06
4	0x37eca619	2.8210738e-05
5	0x3901bbbe	0.00012372338
6	0x38dc54aa	0.000105061874
7	0xb7fe4ce4	-3.0314965e-05
8	0x37a13295	1.921625e-05
9	0x37166dbb	8.966245e-06
10	0xb94ad5aa	-0.00019343817
11	0xb8ae25a9	-8.303981e-05
12	0xb7de860f	-2.6526888e-05
13	0x38f2db61	0.00011580322
14	0x38b97394	8.8430155e-05
15	0x389eff38	7.581565e-05
16	0x38add87e	8.289608e-05
17	0x36713b6f	3.5946393e-06
18	0xb8420122	-4.625426e-05
19	0xb90dd3cf	-0.00013525713
20	0x38f9a0b9	0.00011903182
21	0x38f8a091	0.00011855469
22	0xb8a207cb	-7.7262135e-05
23	0x365b2547	3.2655241e-06
24	0x3899e106	7.3375224e-05
25	0xb792d4f0	-1.7503713e-05
26	0x38ac25cb	8.2086386e-05
27	0x39050731	0.00012686547
28	0x387b0392	5.984639e-05
29	0xb41d2b6c	-1.4637561e-07
30	0x3881c176	6.187234e-05
31	0x387d99d1	6.0463153e-05
32	0x390b801f	0.00013303802
33	0x38810536	6.15217e-05
34	0x393b944b	0.00017888953
35	0xb85f79fd	-5.3280954e-05
36	0x38744652	5.8239624e-05
37	0x388f3188	6.827997e-05
38	0xb84c1590	-4.865747e-05
39	0x389b9d67	7.4202944e-05
40	0xb869717b	-5.5657216e-05
41	0x3610fea8	2.1605902e-06
42	0x3843d751	4.6692152e-05
43	0x38fdf2b1	0.00012109185
44	0x3880d66b	6.143454e-05
45	0x391c6f9f	0.00014918901
46	0xb9a71eef	-0.0003187577
47	0xb5b62185	-1.3569812e-06
48	0x38c62609	9.44846e-05
49	0x39499908	0.00019225862
50	0x37c83507	2.386655e-05
51	0x3912a5d2	0.00013985418
52	0xb8c2c7b1	-9.287836e-05
53	0x9310b54b	-1.826474e-27
54	0xb4feb0ec	-4.7439914e-07
55	0x380c2293	3.34108e-05
56	0x80000004	-6e-45
57	0x38389b07	4.40134e-05
58	0x38a0aea8	7.661927e-05
59	0x386f9672	5.7122154e-05
60	0x9303d64a	-1.6640177e-27
61	0x381d74a7	3.7540358e-05
62	0x38efb243	0.00011429612
63	0x38632570	5.4155884e-05
64	0x00000000	0.0
65	0x00000000	0.0
66	0x00000000	0.0
67	0x00000000	0.0
68	0x00000000	0.0
69	0x00000000	0.0
70	0x00000000	0.0
71	0x00000000	0.0
72	0x00000000	0.0
73	0x00000000	0.0
74	0x00000000	0.0
75	0x00000000	0.0
76	0x00000000	0.0
77	0x00000000	0.0
78	0x00000000	0.0
79	0x00000000	0.0
80	0x00000000	0.0
81	0x00000000	0.0
82	0x00000000	0.0
83	0x00000000	0.0
84	0x00000000	0.0
85	0x00000000	0.0
86	0x00000000	0.0
87	0x00000000	0.0
88	0x00000000	0.0
89	0x00000000	0.0
90	0x00000000	0.0
91	0x00000000	0.0
92	0x00000000	0.0
93	0x00000000	0.0
94	0x00000000	0.0
95	0x00000000	0.0
96	0x00000000	0.0
97	0x00000000	0.0
98	0x00000000	0.0
99	0x00000000	0.0
100	0x00000000	0.0
101	0x00000000	0.0
102	0x00000000	0.0
103	0x00000000	0.0
104	0x00000000	0.0
105	0x00000000	0.0
106	0x00000000	0.0
107	0x00000000	0.0
108	0x00000000	0.0
109	0x00000000	0.0
110	0x00000000	0.0
111	0x00000000	0.0
112	0x00000000	0.0
113	0x00000000	0.0
114	0x00000000	0.0
115	0x00000000	0.0
116	0x00000000	0.0
117	0x00000000	0.0
118	0x00000000	0.0
119	0x00000000	0.0
120	0x00000000	0.0
121	0x00000000	0.0
122	0x00000000	0.0
123	0x00000000	0.0
124	0x00000000	0.0
125	0x00000000	0.0
126	0x00000000	0.0
127	0x00000000	0.0
128	0xb982e70b	-0.00024967673
129	0xb8f29df5	-0.00011568881
130	0xb98e1243	-0.00027097957
131	0xb8f2923b	-0.00011566697
132	0xb90c95b4	-0.00013407209
133	0xb9649e25	-0.00021802688
134	0xb951c937	-0.00020006752
135	0xb8bbb393	-8.950303e-05
136	0xb8a3f4a7	-7.818016e-05
137	0xb8d1e801	-0.00010009111
138	0x391a9a0e	0.00014743974
139	0x3826824c	3.9698833e-05
140	0x37f80f0f	2.9570916e-05
141	0xb956c39f	-0.00020481505
142	0xb948be9e	-0.00019144497
143	0xb936a491	-0.00017418178
144	0xb941166b	-0.00018414266
145	0xb8d57295	-0.00010177974
146	0x3753f807	1.2634328e-05
147	0x390a0f51	0.00013166411
148	0xb972b4c2	-0.00023146256
149	0xb93d0fca	-0.00018030326
150	0x379396cf	1.7593991e-05
151	0xb8ccdd16	-9.7686585e-05
152	0xb920082b	-0.00015261832
153	0xb8d4f28b	-0.00010154125
154	0xb93f8335	-0.00018264058
155	0xb96f9107	-0.00022846843
156	0xb92163e8	-0.00015391374
157	0x373c6673	1.12295265e-05
158	0xb9238443	-0.00015594163
159	0xb928bcd7	-0.00016092077
160	0xb97c265c	-0.00024046883
161	0xb921805f	-0.00015401978
162	0xb96d36a6	-0.0002262244
163	0xb87e931c	-6.0695325e-05
164	0xb9277a1d	-0.00015971852
165	0xb946048a	-0.00018884442
166	0xb8678d1a	-5.5206103e-05
167	0xb9396f5c	-0.0001768446
168	0xb87cb7aa	-6.0252532e-05
169	0x360e8539	2.1237195e-06
170	0xb91e30bb	-0.00015086208
171	0xb9700aea	-0.0002289225
172	0xb84b4269	-4.846082e-05
173	0xb94ec483	-0.00019718897
174	0x3962f829	0.00021645486
175	0x356c4daf	8.8029896e-07
176	0xb9583e46	-0.00020622564
177	0xb9adf2d9	-0.00033178067
178	0xb8fe8651	-0.00012136682
179	0xb9772c76	-0.00023572319
180	0x3494bfb5	2.7706633e-07
181	0x1313b71f	1.8644294e-27
182	0x350cb814	5.2421933e-07
183	0xb90c3054	-0.00013369444
184	0x00000004	6e-45
185	0xb91ad118	-0.00014764478
186	0xb8fee16e	-0.000121536534
187	0xb9253324	-0.00015754678
188	0x13050d5e	1.679355e-27
189	0xb90e99f8	-0.00013599533
190	0xb96371be	-0.00021690779
191	0xb92bf840	-0.00016400311
192	0x39408f0e	0.00018363839
193	0x383a3106	4.4391512e-05
194	0x393beb05	0.00017921261
195	0x37880f6b	1.6219643e-05
196	0x385908c6	5.1745003e-05
197	0x391ff0d8	0.00015253143
198	0x390af46a	0.00013251757
199	0xb710ac8a	-8.623241e-06
200	0x3808ccf6	3.261581e-05
201	0x37eb0dc6	2.8020597e-05
202	0xb95141b8	-0.00019956275
203	0xb8a99201	-8.085743e-05
204	0xb7f56ba1	-2.9256395e-05
205	0x3915df2b	0.00014292884
206	0x38f3ab60	0.00011619064
207	0x38d522de	0.00010163126
208	0x38e66500	0.00010986067
209	0x37c63460	2.3627828e-05
210	0xb834e3bc	-4.312744e-05
211	0xb918568e	-0.00014528094
212	0x391e72b9	0.00015110792
213	0x39133d07	0.00014041747
214	0xb895aece	-7.1374336e-05
215	0x37bcd6c4	2.2511354e-05
216	0x38c78e32	9.5155454e-05
217	0x36a98153	5.051648e-06
218	0x38e43a92	0.00010882797
219	0x39250831	0.00015738678
220	0x38af2b12	8.352673e-05
221	0xb61f64c3	-2.3751497e-06
222	0x38b3c733	8.572489e-05
223	0x38b3400f	8.547317e-05
224	0x392d4060	0.00016522547
225	0x38b24f56	8.502479e-05
226	0x395481ef	0.000202663
227	0xb8110817	-3.457823e-05
228	0x38aea6c2	8.3280276e-05
229	0x38cd6756	9.7944096e-05
230	0xb804a1d7	-3.1621978e-05
231	0x38d344ee	0.00010074103
232	0xb81a3a7d	-3.6770933e-05
233	0x35c6197e	1.4759569e-06
234	0x38959e51	7.1343624e-05
235	0x391fd0f5	0.00015241264
236	0x3885a90b	6.373421e-05
237	0x39330309	0.00017071901
238	0xb9a99f27	-0.0003235277
239	0xb5b7d72e	-1.3697188e-06
240	0x3902814c	0.00012445933
241	0x39770f48	0.00023561448
242	0x383e3e74	4.5357694e-05
243	0x393288f4	0.00017026422
244	0xb8ab28d1	-8.161518e-05
245	0x931c9760	-1.9764602e-27
246	0xb50c2ece	-5.2222174e-07
247	0x386bfd93	5.6264525e-05
248	0x80000004	-6e-45
249	0x388f5f1b	6.836486e-05
250	0x38c07274	9.176592e-05
251	0x38abb3d2	8.1874095e-05
252	0x930e5852	-1.7966465e-27
253	0x387d26ab	6.0355913e-05
254	0x391704b9	0.00014402242
255	0x38a8ee04	8.055198e-05
