logs/Pendulum-v0.pth (torch_old, 62072 bytes, 18 tensors)

feature_ext.fc.0.weight f4 [64, 3]
0	0xbfa17823	-1.2614788
1	0x3fa00ae4	1.2503324
2	0x3efd243a	0.494417
3	0xbf61b910	-0.8817301
4	0xbfabb451	-1.3414403
5	0xbcf2583f	-0.029583095
6	0xbfb2dffe	-1.3974607
7	0x3f6952e6	0.9114212
8	0x3ee136c2	0.4398709
9	0x3d035942	0.032067545
10	0x3f02b15c	0.5105188
11	0x3ee50f9e	0.44738477
12	0xbdcfbb76	-0.10143177
13	0x401d58d1	2.458546
14	0x3f0c7a46	0.54874074
15	0xbec46601	-0.38359073
16	0xbf2e794b	-0.6815383
17	0x3f8f6dbc	1.1205363
18	0xbef4bba8	-0.4779942
19	0x3d29a42b	0.04141633
20	0xbefe2616	-0.49638432
21	0x3e80b324	0.25136673
22	0x3f3608b8	0.71107054
23	0x3ed481bb	0.41505226
24	0xbfa72960	-1.3059502
25	0xc004e965	-2.0767453
26	0xbef89c36	-0.4855668
27	0xbf5f1f77	-0.87157387
28	0x3fe87f35	1.816382
29	0x3f053f24	0.5204947
30	0xbfbf81d5	-1.4961497
31	0x3f60157f	0.875328
32	0x3eed3a59	0.46333578
33	0x3f28aa14	0.6588452
34	0x3f2a63cc	0.6655853
35	0x3f0246b9	0.50889164
36	0x3eaedd3b	0.3415316
37	0x3e7cc4cd	0.24684449
38	0xbe45e060	-0.19323874
39	0xbf9e87a4	-1.2385144
40	0x3f8fda35	1.1238467
41	0x3e21237a	0.1573619
42	0x3f8b5486	1.088517
43	0xbeef3c87	-0.46725866
44	0xbcacb11b	-0.021080544
45	0x3de42309	0.11139495
46	0x40195576	2.3958411
47	0xbf12814e	-0.57228553
48	0xbf123a8d	-0.5712059
49	0x40091d3c	2.1424093
50	0x3f05f68d	0.5232933
51	0xbfde633e	-1.7374036
52	0xbf86125f	-1.0474356
53	0xbf0438ee	-0.5164937
54	0x3f0400bc	0.5156362
55	0x3f18dc70	0.5971136
56	0x3c72bd1d	0.014815596
57	0x3f1e3bf2	0.6181022
58	0x3b9f1b9f	0.0048555876
59	0x3df2532c	0.1183227
60	0x3ee675eb	0.4501184
61	0xbf0431b6	-0.5163835
62	0x3d835f6c	0.06414685
63	0xbf4b8b2c	-0.79509234
64	0xc0150ceb	-2.3289135
65	0xbf0b7d56	-0.5448812
66	0x3e9abf52	0.3022409
67	0x3d3b8c66	0.04578819
68	0x3e109a10	0.1412127
69	0x3f27adb3	0.6549942
70	0xbfbab220	-1.458561
71	0xbed2bd0a	-0.4115985
72	0x3d23bff4	0.039977983
73	0xbf201242	-0.6252786
74	0xbd00fcd1	-0.031491105
75	0x3f9b0997	1.2112302
76	0xbee4794d	-0.44623795
77	0x3d8f4228	0.0699504
78	0x3fb7d6f4	1.4362473
79	0x3f3ef0da	0.7458626
80	0x3f2aa45a	0.6665703
81	0xbea275f0	-0.31730604
82	0x3f6135a6	0.87972486
83	0xbdda3bc6	-0.10655932
84	0x3f826a64	1.0188718
85	0xbf5954c7	-0.84894985
86	0xbe9f5ec3	-0.31126985
87	0xbf859ea9	-1.0439044
88	0xc011e215	-2.279424
89	0xbf16cb29	-0.5890375
90	0xbf490e12	-0.78537095
91	0x400db6d9	2.2142851
92	0x3f0a4f1f	0.5402698
93	0xbfc69105	-1.5513006
94	0xbf33e87e	-0.7027663
95	0x3eacac60	0.33725262
96	0xbf711002	-0.9416505
97	0x3f22a0f2	0.63526833
98	0x3ebcb104	0.36853802
99	0x3d814629	0.0631221
100	0xbec1f1b1	-0.37879708
101	0x3b340df4	0.0027474137
102	0xbf3aa2f8	-0.7290492
103	0x3edfca84	0.43709195
104	0x3ea2a42d	0.3176588
105	0x3f510f9a	0.8166443
106	0xbec22f44	-0.37926686
107	0x3d8b0b8f	0.06789314
108	0xbf3c79ee	-0.7362355
109	0xbfe3c59d	-1.7794682
110	0x3e43ba6e	0.19114086
111	0x3f827f42	1.0195086
112	0x3f02dc60	0.51117516
113	0x3de5881f	0.11207604
114	0xbf019ac3	-0.5062677
115	0xbfbcaca2	-1.4740183
116	0xbe269800	-0.16268921
117	0xbd1a129b	-0.0376154
118	0x3e3e9470	0.18611312
119	0x3e809158	0.25110888
120	0x3e8109b7	0.25202724
121	0x3f454581	0.7705918
122	0x3e33da85	0.17563827
123	0xbf0c5ae9	-0.5482622
124	0xc0347e71	-2.8202174
125	0xbf24fceb	-0.6444842
126	0xbfac3171	-1.3452588
127	0xbe4ce1a2	-0.20007947
128	0x3f1bcbd2	0.6085788
129	0x3e9ddbdb	0.308318
130	0x3f86d673	1.0534195
131	0x3f81add7	1.0131177
132	0x3f17eb4d	0.59343415
133	0x3e462a47	0.19352065
134	0xbc8a2548	-0.01686348
135	0xbf11a4a7	-0.56891865
136	0x3fb49ffb	1.4111322
137	0xbd5e2165	-0.054231066
138	0xbed4f070	-0.4158969
139	0xbf553d55	-0.8329671
140	0x3f176bc6	0.59148824
141	0xbfaf2070	-1.3681774
142	0x3f7b1e79	0.9809337
143	0x3eece8c9	0.4627135
144	0xbe8cc5c1	-0.27494624
145	0x3e7a638c	0.24452037
146	0x3e3cb67e	0.1842899
147	0xbdd94ac2	-0.10609962
148	0x3ff4bc61	1.9119989
149	0x3edb9c6c	0.42892778
150	0x3ff4abad	1.9114891
151	0x3d9587c4	0.07301286
152	0xbc802b43	-0.015645629
153	0xbf024d1f	-0.5089893
154	0xbce1135f	-0.027475057
155	0x3d5f42cf	0.054507073
156	0x3f65ff68	0.89842844
157	0x3ec8aa66	0.39192504
158	0xbd32d7f4	-0.04366298
159	0xbe8e3bda	-0.27780038
160	0x3f2fb0cc	0.68629146
161	0xbe15818e	-0.14600202
162	0xc00b3255	-2.174947
163	0xbf935445	-1.1510092
164	0xbf05bc23	-0.522402
165	0xbf8598e4	-1.0437284
166	0xbf54b1bb	-0.83083695
167	0x3ed2607b	0.41089234
168	0xbf02a4ff	-0.51033014
169	0xbfd330fe	-1.6499326
170	0xbe4b15b4	-0.19832498
171	0xbf8b32b4	-1.0874848
172	0xbf8252c5	-1.0181509
173	0x3eb71150	0.35755396
174	0xbffda2da	-1.9815323
175	0xbf9c5d4c	-1.2215972
176	0xbf2afd3b	-0.6679265
177	0x3e3b211e	0.18274352
178	0x3fbec656	1.4904277
179	0x3ec524c2	0.38504606
180	0xbf7966de	-0.9742259
181	0xbfbc96c0	-1.4733505
182	0x3e4013a3	0.18757491
183	0xbfcb972f	-1.5905513
184	0xbf598e8a	-0.8498312
185	0x3e73561b	0.23763315
186	0xbf906824	-1.1281781
187	0x3efbe0a7	0.49194834
188	0xbe9d5ecd	-0.3073639
189	0xbdacd7aa	-0.08439572
190	0xc01fd052	-2.4970899
191	0xbf03832a	-0.51372015

feature_ext.fc.0.bias f4 [64]
0	0x3f426b67	0.7594513
1	0xbf011344	-0.5042002
2	0x3f4049d3	0.75112647
3	0x3f72bb40	0.9481697
4	0x3f74d878	0.95642805
5	0xbdcb0d44	-0.099146396
6	0x3f6d9646	0.92807424
7	0x3f59b24c	0.85037684
8	0xbd0d0eca	-0.034437932
9	0x3e1127e6	0.14175376
10	0x3f527248	0.8220563
11	0x3f3b260c	0.7310493
12	0x3ed89b0e	0.42305797
13	0x3eb47ffb	0.3525389
14	0x3f7534e4	0.9578383
15	0x3f2666d6	0.65000665
16	0xbe931808	-0.28729272
17	0x3f3d08ba	0.7384144
18	0x3f56c381	0.83892065
19	0x3f5e959b	0.8694703
20	0x3f5a973d	0.8538702
21	0xbe281c0e	-0.16416952
22	0x3f62fd37	0.88667625
23	0x3e8f7a00	0.28022766
24	0x3f9dab10	1.2317829
25	0x3f7eff71	0.9960852
26	0xbe473077	-0.19452082
27	0x3f328f0f	0.6974954
28	0x3ef8e74a	0.4861396
29	0x3d8b3761	0.06797672
30	0xbdfb40c2	-0.12268211
31	0x3daa457e	0.08314036
32	0x3f516cda	0.8180672
33	0x3f8c01c1	1.0938035
34	0x3f5140b7	0.8173937
35	0x3f354a27	0.7081627
36	0xbe0b661c	-0.1361317
37	0x3f534a34	0.825351
38	0xbd9ce122	-0.07660128
39	0x3f512dc9	0.8171049
40	0x3f7873f5	0.97051936
41	0xbf074f1d	-0.5285509
42	0x3f1034f3	0.56330794
43	0x3ec05a6b	0.37568983
44	0x3f3d753a	0.74007
45	0x3f7d7042	0.98999417
46	0x3e55762d	0.20845862
47	0x3f613b9f	0.879816
48	0x3f85623b	1.0420603
49	0xbf17f45b	-0.5935723
50	0x3f73919b	0.9514405
51	0x3f252b9b	0.6451966
52	0x3f43f579	0.76546437
53	0x3f23a587	0.6392445
54	0x3f041c3f	0.516056
55	0x3f35cef4	0.7101891
56	0xbe1e798a	-0.15476051
57	0xbf0c1583	-0.54720324
58	0x3fadbdeb	1.3573583
59	0x3f674388	0.9033742
60	0xbf10de96	-0.5658964
61	0x3d5fbed9	0.054625366
62	0x3e908a2f	0.28230426
63	0x3f807fcc	1.0039

feature_ext.fc.2.weight f4 [64, 64]
0	0x3e9dee28	0.3084576
1	0x3f09d9cb	0.5384795
2	0x3e6d27b1	0.23159672
3	0x3ebbeb37	0.36702892
4	0x3f3756c8	0.7161679
5	0xbe8ac3ad	-0.27102414
6	0xbad01bd0	-0.0015877429
7	0xbd965d18	-0.07341975
8	0x3ecf79c3	0.40522584
9	0x3edce980	0.43146896
10	0xbe287dae	-0.16454193
11	0x3d8406d9	0.064466186
12	0x3ef91731	0.48650506
13	0x3ec3906a	0.38196117
14	0x3f058368	0.52153635
15	0x3ead18b0	0.33807898
16	0x3f332ecc	0.6999328
17	0x3d052f68	0.032515913
18	0x3d80d9f6	0.06291573
19	0xbdbb35be	-0.0914111
20	0x3da6f747	0.08152633
21	0x3f53ce29	0.8273645
22	0x3dcfdd00	0.10149574
23	0x3f416c45	0.7555583
24	0xbe66a23a	-0.22522822
25	0x3f0599b9	0.5218769
26	0x3ef4bacb	0.47798762
27	0x3eeb4bfc	0.4595641
28	0x3f73840b	0.95123357
29	0x3f70c488	0.9404988
30	0x3eec5efb	0.46166214
31	0x3eb9816b	0.3623155
32	0xbe804688	-0.2505381
33	0xbc0ea619	-0.008706593
34	0x3f03f1d1	0.5154086
35	0x3f1e9d1e	0.6195849
36	0x3e8201f8	0.25392127
37	0x3e8358c4	0.2565366
38	0x3ef67d30	0.48142385
39	0xbeac0a8e	-0.33601803
40	0xbe81d559	-0.25358084
41	0x3f50e1b9	0.81594425
42	0x3f3baadc	0.73307586
43	0xbec603ad	-0.3867468
44	0x3ea619ff	0.32441708
45	0x3e9a8fdd	0.30187884
46	0x3f062325	0.52397376
47	0x3db3e08b	0.087830625
48	0x3e99e6f5	0.3005902
49	0x3f5853a8	0.8450265
50	0x3f6dd71a	0.92906344
51	0x3e101a73	0.1407259
52	0x3f75df2f	0.96043676
53	0xbe8e3e13	-0.27781734
54	0x3dd655ff	0.10465621
55	0x3f11fe73	0.57028884
56	0x3f0115b0	0.5042372
57	0x3f54301f	0.82885927
58	0x3ea1bce7	0.31589434
59	0x3e213d5f	0.15746067
60	0x3f1822b8	0.59427977
61	0x3f454d87	0.7707142
62	0x3f401aa3	0.75040644
63	0x3f47f86b	0.7811343
64	0xbdaaf34d	-0.08347187
65	0x3f712214	0.94192624
66	0xbcdad4a3	-0.026712721
67	0x3e88c32b	0.267114
68	0x3f18f202	0.59744275
69	0x3f369704	0.7132418
70	0x3f7994c7	0.9749264
71	0x3ecae765	0.39629665
72	0xc0b05aa7	-5.511066
73	0x3d3c9843	0.046043646
74	0x3ebb2116	0.3654868
75	0x3f2fdf6c	0.6870029
76	0x3f43d1eb	0.76492184
77	0x3de7ca07	0.113178305
78	0x3b90225a	0.0043986263
79	0x3e9bdd1b	0.30442128
80	0xbeddebef	-0.43344066
81	0xc10171fc	-8.090328
82	0xbddf90a0	-0.10916257
83	0xbf072108	-0.52784777
84	0xbebb7ba6	-0.36617774
85	0xbf76dcfe	-0.9643096
86	0xbeb3db74	-0.35128367
87	0xbe6d2210	-0.23157525
88	0xbf4b5d9c	-0.7943971
89	0x3f4556c1	0.770855
90	0x3f0d8bbd	0.5529135
91	0xbf01de94	-0.5073025
92	0x3f1865a6	0.59530103
93	0xc09ad16a	-4.8380632
94	0xbe247c90	-0.16063142
95	0xbd77d647	-0.060507085
96	0xbe9582c2	-0.29201323
97	0xbf400afc	-0.7501676
98	0x3e994b56	0.2994029
99	0x3f2592c8	0.64677095
100	0xbe2a016e	-0.16602108
101	0x3eb2befd	0.34911337
102	0x3ebf46c6	0.37358683
103	0x3e48e7ba	0.19619647
104	0x3eaa7c55	0.33297983
105	0xc0985e57	-4.761516
106	0x3f1917d5	0.5980199
107	0x3f5d6878	0.8648753
108	0xbe8764f6	-0.26444215
109	0xbf1f623e	-0.6225928
110	0xbe7f8417	-0.24952732
111	0xbdb3270d	-0.08747683
112	0xbdcf5bf0	-0.101249576
113	0xbe458ea4	-0.19292694
114	0xbf40a705	-0.7525485
115	0x3e6cc9cf	0.23123859
116	0xbe5b2fd9	-0.21404971
117	0xbe19ea81	-0.15030862
118	0xc104bb4b	-8.295726
119	0xbeee3bee	-0.46530098
120	0x3d6c90ed	0.0577554
121	0x3dd93201	0.106052406
122	0xc0d4bba3	-6.647905
123	0x3e0c0406	0.1367341
124	0x3cb1d220	0.02170664
125	0x3dc312b7	0.09525054
126	0xbcf9a00f	-0.03047183
127	0xc0a60793	-5.1884246
128	0x3ddadaae	0.10686241
129	0x3f4d4bf0	0.80193996
130	0x3eeb3bad	0.45943967
131	0x3f101624	0.56283784
132	0x3f77a34f	0.96733564
133	0xbf0c00a3	-0.5468847
134	0x3ec94903	0.39313516
135	0x3dbfd21c	0.09366247
136	0x3e96d573	0.29459724
137	0x3f3c2083	0.7348711
138	0x3e294621	0.16530658
139	0x3ecf99c8	0.40547013
140	0x3f17a757	0.59239715
141	0x3e4b13dd	0.19831796
142	0x3f5a27b8	0.85216856
143	0x3f13a679	0.5767589
144	0x3f7187c4	0.94347787
145	0x3eb8881f	0.36041352
146	0x3ecfaa5b	0.40559658
147	0x3dc0b403	0.094093345
148	0x3e5671c5	0.20941837
149	0x3f60a482	0.8775102
150	0x3ecfb819	0.40570143
151	0x3f8e16f9	1.1100761
152	0x3cfed358	0.031106636
153	0x3ec6ba9c	0.38814247
154	0x3f4abfae	0.7919873
155	0x3eaecf8f	0.3414273
156	0x3f62d4e8	0.8860612
157	0x3f192e9e	0.5983676
158	0x3f6794cb	0.90461415
159	0x3e9f1b78	0.31075644
160	0x3ed5530b	0.4166492
161	0x3e4090c1	0.18805219
162	0x3f18cf6c	0.596915
163	0x3efc2191	0.4924436
164	0x3ed7b29e	0.42128462
165	0x3f3181b0	0.6933851
166	0x3f4512d7	0.7698187
167	0x3d7f76b5	0.062369067
168	0x3e4ec309	0.20191588
169	0x3f566056	0.83740747
170	0x3f22c9e8	0.63589334
171	0xbf6339cf	-0.88760084
172	0x3f25542d	0.6458157
173	0x3f179848	0.5921674
174	0x3ead54ba	0.33853704
175	0x3ed146ab	0.40874228
176	0x3d6b57c3	0.057456743
177	0x3f057658	0.52133703
178	0x3fa450d2	1.2837164
179	0x3e3b1a56	0.18271765
180	0x3f4055c5	0.75130874
181	0x3ef0b3da	0.47012216
182	0xbd86feb9	-0.06591553
183	0x3f27bf95	0.65526706
184	0x3f35e823	0.7105734
185	0x3f7cdfb8	0.9877887
186	0xbd7c94fa	-0.061665513
187	0x3e981356	0.29702252
188	0x3f69ef98	0.91381216
189	0x3ed9e245	0.42555442
190	0x3f0cecb2	0.5504867
191	0x3f28295b	0.65688103
192	0x3f75c4df	0.96003526
193	0x3ed27ea9	0.4111226
194	0x3f417106	0.75563085
195	0x3ef25644	0.4733144
196	0x3f2ad291	0.6672755
197	0x3f6d97f7	0.92810005
198	0xbf37fc90	-0.71869755
199	0x3e61d99f	0.22055672
200	0x3e563a05	0.2092057
201	0x3f569caf	0.8383283
202	0x3f533f17	0.8251814
203	0xbf192603	-0.59823626
204	0x3fa0df07	1.2568063
205	0x3f0e855a	0.5567223
206	0xbf2a64f9	-0.6656032
207	0xbe90e112	-0.28296715
208	0x3f4237fc	0.75866675
209	0xbf94de4a	-1.1630337
210	0xbf039085	-0.51392394
211	0xbf4af879	-0.7928539
212	0xbf13c487	-0.5772175
213	0x3ec03b49	0.3754523
214	0xbf4850b5	-0.7824815
215	0x3ea153f0	0.31509352
216	0xbe559b70	-0.20860076
217	0x3e8c0fa3	0.2735568
218	0xbfadab84	-1.3567967
219	0xbf87f68d	-1.0622116
220	0x3efeb544	0.4974767
221	0x3ea6f8a2	0.32611567
222	0x3ebdc281	0.37062457
223	0x3f62b7b3	0.8856155
224	0x3f4bc3b4	0.79595494
225	0xbeadf2e0	-0.3397436
226	0x3f8507c6	1.0392997
227	0x3e37eec4	0.17962176
228	0x3dce0b12	0.10060705
229	0xbfd50301	-1.6641542
230	0x3ef39f12	0.475823
231	0x3e9c2b55	0.3050181
232	0xbe49aa66	-0.19693908
233	0x3f24c5f7	0.6436457
234	0x3f091836	0.5355257
235	0x3f0384b8	0.5137439
236	0xbf5f50a3	-0.87232417
237	0xbe60bc33	-0.21946792
238	0xbd3d04a6	-0.04614701
239	0x3f238d8e	0.6388787
240	0x3f6e3b92	0.9305965
241	0x3e8ab54b	0.2709144
242	0xc001d80d	-2.0288117
243	0x3f31e014	0.6948254
244	0xbf65fcaa	-0.8983866
245	0xbfc0e5ea	-1.5070164
246	0x3d81d9a6	0.06340341
247	0x3e0d8a30	0.13822246
248	0xbea59047	-0.32336637
249	0x3e9061fc	0.28199756
250	0xbf5c7bfc	-0.86126685
251	0x3ebcfff5	0.3691403
252	0x3e9f237f	0.3108177
253	0x3f834083	1.0254062
254	0xbfefec98	-1.8744078
255	0x3eddadc3	0.43296632

feature_ext.fc.2.bias f4 [64]
0	0xbdd8d4a7	-0.10587435
1	0xbde54326	-0.11194448
2	0x3dd2ded5	0.10296408
3	0xbb84ab04	-0.004048707
4	0xbcfbf8e8	-0.030758336
5	0xbe39f02f	-0.18158029
6	0x3de09fb8	0.10967964
7	0x3ee4e4a3	0.44705686
8	0x3f0dbebd	0.5536917
9	0x3d44257f	0.04788732
10	0xbd36450c	-0.044499442
11	0x3f339f12	0.701646
12	0x3eb26f89	0.3485072
13	0x3e691092	0.22760227
14	0x3eb8f48f	0.36124083
15	0x3ec10cf4	0.37705195
16	0xbd521e0d	-0.05129819
17	0xbd34aed9	-0.04411206
18	0x3d1d4f9a	0.038405992
19	0xbd21514f	-0.039384183
20	0xbd5f8c57	-0.054577198
21	0xbdf83c34	-0.12120858
22	0xbd86395b	-0.065539084
23	0x3ea826d8	0.32842135
24	0x3ea97e02	0.3310395
25	0xbdb53a63	-0.08849027
26	0xbd6214c2	-0.055195577
27	0xbdb97ad8	-0.09056634
28	0xbe7013eb	-0.23445098
29	0xbe2776a2	-0.16353849
30	0xbd1f0d85	-0.038831253
31	0xbb96f61c	-0.0046069752
32	0xbd360a52	-0.044443436
33	0x3b41d200	0.0029574633
34	0xbd56c4ea	-0.052433886
35	0xbd00f22d	-0.031480957
36	0xbcd42e8e	-0.025901105
37	0xbde05591	-0.109538205
38	0x3ef20d43	0.47275743
39	0x3cc44b72	0.023961756
40	0x3dd916a3	0.10600021
41	0xbde5559e	-0.11197971
42	0xbd8dc87f	-0.06923007
43	0xbe112b8a	-0.14176765
44	0x3da92ab6	0.082600996
45	0xbc636895	-0.013879915
46	0x3e1ae316	0.15125689
47	0xbe0a64fb	-0.13515083
48	0x3f1f9693	0.62339133
49	0x3f151adb	0.58244103
50	0x3bfaa3fd	0.0076489435
51	0xbe297f4f	-0.1655247
52	0xbddfb824	-0.10923794
53	0x3f212031	0.62939745
54	0xbd731fd0	-0.05935651
55	0x3e9758bf	0.29559895
56	0xbd225688	-0.039633304
57	0x3d50fa68	0.051020056
58	0x3e911a5a	0.28340417
59	0xbe1e7317	-0.15473591
60	0xbd30e65d	-0.04318844
61	0x3d7bb547	0.061452176
62	0xbdaff052	-0.08590759
63	0xbc91ad65	-0.017782876

critic.weight f4 [1, 64]
0	0xbf1d4291	-0.614297
1	0x4045890a	3.0864892
2	0xbf29adb1	-0.6628066
3	0x3fac8900	1.3479309
4	0xbf0b4433	-0.5440094
5	0xbf2c99d9	-0.6742225
6	0x40486443	3.1311195
7	0x40046d47	2.0691698
8	0x400e5110	2.2236977
9	0xbf07750e	-0.52912986
10	0x3e15e930	0.14639735
11	0x3fd08474	1.6290421
12	0x3ff2fd34	1.8983521
13	0x400eaa6d	2.229152
14	0x405f1a32	3.4859738
15	0x3fd632d8	1.6734266
16	0x3d04b283	0.032396805
17	0x409ef47e	4.967345
18	0x3fb40d04	1.4066472
19	0x3d927159	0.071505256
20	0xbf3aaba7	-0.7291817
21	0xbf35a347	-0.70952266
22	0xbf128532	-0.5723449
23	0x3fb90263	1.4453853
24	0x3f662e67	0.89914554
25	0xbf27a673	-0.65488356
26	0xbf1df6ca	-0.61704695
27	0xbf290eed	-0.660384
28	0xbf31fc08	-0.69525194
29	0xbf066e9c	-0.52512527
30	0xbf0b786f	-0.5448064
31	0xbf05058d	-0.51961595
32	0x3d4b3ebb	0.04962037
33	0xbf16db14	-0.58928037
34	0x3c7d0654	0.015443403
35	0x3d90168a	0.07035549
36	0x3cac5273	0.021035409
37	0xbf02e1b4	-0.51125646
38	0x408d9517	4.4244494
39	0xbf28196c	-0.6566379
40	0xbf24232a	-0.64116156
41	0xbf24fa45	-0.6444438
42	0xbf0e6810	-0.55627537
43	0xbf04842a	-0.51764166
44	0xbf195503	-0.5989534
45	0xbf3d034a	-0.73833144
46	0x406d4a89	3.7076743
47	0xbf431a6a	-0.7621218
48	0x3ff0db62	1.881695
49	0x405964cf	3.3967779
50	0xbf20b127	-0.62770313
51	0x40437f24	3.054635
52	0x4064bbba	3.573958
53	0x400e8e20	2.2274246
54	0xbf4b0d3c	-0.7931707
55	0x3fc3f9b8	1.5310583
56	0x3eb095e4	0.34489357
57	0xbf1fe532	-0.624591
58	0x40b62267	5.6916995
59	0xbf3b19cb	-0.7308623
60	0xbf3449e0	-0.70425224
61	0xbf317aae	-0.6932782
62	0xbf28e833	-0.6597931
63	0xbf0a2326	-0.5395988

actor.weight f4 [1, 64]
0	0xbcd88f0b	-0.026435396
1	0xbe546997	-0.20743404
2	0x3c7403ea	0.014893511
3	0x3c880088	0.016601816
4	0x3c8bb945	0.017056117
5	0x3d3dddab	0.046353977
6	0x3d9265f5	0.07148353
7	0xbd389fe9	-0.045074377
8	0x3e35724c	0.17719382
9	0xbca76b78	-0.020436987
10	0x3b8837b7	0.0041570324
11	0xbd5413f0	-0.051776826
12	0x3d904fc4	0.07046464
13	0xbe0331e1	-0.12811996
14	0xbe2b6e9d	-0.16741414
15	0xbda1a4da	-0.07892771
16	0x3c18113a	0.009281451
17	0x3d2442ba	0.040102698
18	0x3ce83c11	0.028348954
19	0x3c7c8407	0.015412337
20	0x3d02c69a	0.031927682
21	0xbc53c9b7	-0.012926511
22	0x3d31e48d	0.043430854
23	0x3d108c5a	0.0352901
24	0xbdf641d3	-0.12024274
25	0x3a45a07a	0.00075388665
26	0x3b9683a5	0.00459333
27	0xbc8edfea	-0.017440755
28	0xbd4b7b05	-0.049677867
29	0xbd3705e4	-0.044683352
30	0xbc16d6b5	-0.009206464
31	0x3cb316d8	0.021861479
32	0x39f494d9	0.00046650207
33	0x3d3d9461	0.046284083
34	0xbbeb0a9b	-0.007172895
35	0x3a9b7fc2	0.0011863636
36	0x3ba11dbc	0.0049168747
37	0xbaef2234	-0.0018244446
38	0x3dbbb6fb	0.0916576
39	0xbb3e50a8	-0.0029039774
40	0x3b56bb02	0.0032765274
41	0xbc5787ad	-0.013154906
42	0x3b40bbc4	0.0029408792
43	0xbc24a4f1	-0.010049091
44	0xbd25a237	-0.040437903
45	0x3ca1c55e	0.019747432
46	0x3ec29726	0.38005942
47	0xbb00bcfa	-0.0019643889
48	0x3c92c269	0.017914968
49	0x3e27c79b	0.16384737
50	0xbc083d48	-0.008315392
51	0x3ed24f7d	0.4107627
52	0xbdaa2f6d	-0.08309827
53	0xbe1c4e7b	-0.15264313
54	0x3e2a919c	0.16657108
55	0xbe0ba79f	-0.13638161
56	0xbca40ccd	-0.020025635
57	0xbcdc3ab5	-0.026883462
58	0xbe5bd0c2	-0.21466354
59	0x3da6eb8f	0.08150398
60	0x3af62d41	0.0018781797
61	0x3c286abc	0.010279354
62	0x3c40dcce	0.011771394
63	0xbd318b3f	-0.043345686

exp_avg f4 [64, 3]
0	0xba99ca94	-0.0011733347
1	0xbb93d080	-0.004510939
2	0x3c3bd58e	0.01146449
3	0xb933730d	-0.0001711363
4	0x39f1aec6	0.00046097318
5	0xbb201e26	-0.0024432032
6	0x37a5d372	1.9767995e-05
7	0xbb5e38f6	-0.0033908463
8	0xbb0cf80a	-0.0021510147
9	0x3a50d30a	0.00079660176
10	0x3a23f71e	0.000625478
11	0xba624f2d	-0.0008633014
12	0xbbf98e0e	-0.007615811
13	0xbbd73461	-0.0065675233
14	0x3cb955a0	0.022623837
15	0xbb0b730c	-0.002127829
16	0x3acb8791	0.0015528073
17	0xbc7442fa	-0.014908547
18	0x3b15bd81	0.0022848549
19	0x3a53f405	0.0008085373
20	0xbb20037c	-0.002441614
21	0x3abf458e	0.0014592872
22	0x398d8776	0.00026994542
23	0xbb8b9698	-0.0042598955
24	0x3935e305	0.00017346076
25	0xbb064bd0	-0.0020491965
26	0x3c13d9b3	0.0090240715
27	0xbac152c5	-0.0014749399
28	0xbb301ea0	-0.0026873723
29	0x3bf47f9b	0.007461501
30	0xba572b71	-0.00082080724
31	0xbb16fbb2	-0.0023038206
32	0xbb56bb1e	-0.003276534
33	0x3ae7f88a	0.0017697972
34	0x38f8c10a	0.00011861518
35	0xbade358e	-0.0016953216
36	0xba727275	-0.0009248623
37	0x3a762a9d	0.0009390505
38	0xbb9e0f1a	-0.0048235776
39	0xb8882a89	-6.492908e-05
40	0x3b147b3a	0.0022656457
41	0xbc7c54ed	-0.015401107
42	0xba751be2	-0.0009350163
43	0x39850a3d	0.00025375365
44	0x3bdb0a44	0.0066845734
45	0x3adc79dd	0.0016820986
46	0xb90ec1cf	-0.00013614375
47	0xb950341c	-0.00019855838
48	0xbb6fedd3	-0.003661026
49	0x3a8931c7	0.0010467105
50	0xbbb78b1f	-0.0056013013
51	0x3a9a58c3	0.0011775721
52	0x3a3b15d2	0.00071367354
53	0xba090542	-0.0005226919
54	0x3b1cbfd4	0.002391805
55	0x39030c78	0.00012497779
56	0x3b00fe58	0.001968285
57	0x3b0e0566	0.0021670698
58	0x3942545d	0.0001853271
59	0x3b2e4553	0.0026591613
60	0x3aa9e871	0.001296295
61	0x3a4b027c	0.00077442056
62	0xb98ed6b2	-0.0002724431
63	0x3ba26a01	0.0049564843
64	0xba009599	-0.0004905104
65	0xbc1daa24	-0.009623084
66	0x3b1fc10c	0.002437654
67	0x39cafde8	0.00038717617
68	0xba531479	-0.0008052062
69	0xbb27862d	-0.0025562153
70	0xb9f5b103	-0.00046861926
71	0xba456368	-0.00075297663
72	0x3ac8a1e8	0.0015307041
73	0x3a0eacae	0.00054426014
74	0x3a3f5726	0.0007299058
75	0xbb0d5dca	-0.0021570795
76	0x3b0c4231	0.0021401758
77	0x3bbee641	0.0058257882
78	0xba105e77	-0.00055072404
79	0xba71b40a	-0.00092202483
80	0x3c2791b4	0.010227609
81	0x3ae6f4d4	0.0017620572
82	0x39cad68c	0.00038688292
83	0x3b374369	0.0027963764
84	0xbb424b8a	-0.0029647076
85	0x3a52bfcf	0.0008039446
86	0xbba277d0	-0.0049581304
87	0x3b5fcadb	0.003414801
88	0xbaffc1bd	-0.0019512695
89	0x3b1696db	0.00229781
90	0xba8ac88e	-0.0010588334
91	0x3a7ccc22	0.0009643455
92	0xbb2e8f77	-0.0026635805
93	0xb9e27c7b	-0.00043198824
94	0x3a9407ae	0.0011293793
95	0xba42eec1	-0.000743609
96	0xb9f52ec6	-0.0004676489
97	0xb9879c79	-0.00025865788
98	0xb9a6b4b4	-0.00031796622
99	0x3acd3713	0.0015656672
100	0x398004f6	0.0002441776
101	0x3b02f511	0.0019982497
102	0xbb590004	-0.0033111582
103	0x3a1d0342	0.000598956
104	0x3b2b651d	0.0026152798
105	0xbb064325	-0.0020486799
106	0x3b20d014	0.0024538087
107	0x3b7f1fc4	0.0038928846
108	0xb9c08456	-0.00036719692
109	0x3a1ee6ca	0.0006061612
110	0x3ac6341b	0.001512173
111	0xb9bcbe3c	-0.0003599989
112	0xb9e59bbf	-0.00043794324
113	0x3bcebe5c	0.0063093137
114	0x39c234b2	0.00037041825
115	0xba35c023	-0.00069332327
116	0x3b448ef2	0.0029992429
117	0x3a662386	0.0008779097
118	0x3a9abe2f	0.0011805947
119	0xbc3155c5	-0.010823672
120	0x3ac8d0ed	0.0015321054
121	0x3a43e4f9	0.0007472779
122	0xbbdfe8be	-0.006833165
123	0x3b96b3f5	0.0045990893
124	0xbb4f4d40	-0.0031631738
125	0x3b07cb92	0.0020720703
126	0x39f9954f	0.00047604225
127	0x3ac09617	0.0014693168
128	0x3a75b570	0.00093730446
129	0x3a122ada	0.00055758434
130	0x3ab327a5	0.0013668431
131	0xbc676c8e	-0.014125003
132	0x3b2df317	0.0026542598
133	0x39ba1ac0	0.00035496615
134	0x3b78bc78	0.0037954133
135	0xbade151b	-0.0016943546
136	0xba3fb5e5	-0.0007313176
137	0xba80cf34	-0.0009827376
138	0xb9c3a945	-0.00037319414
139	0x3a589931	0.00082625734
140	0x39045023	0.00012618354
141	0xbb065430	-0.0020496957
142	0xbb4dcd9b	-0.0031403068
143	0xbbc93b81	-0.0061411266
144	0xbb2f33e0	-0.00267338
145	0x3a989f8b	0.0011644227
146	0xbc2f3af3	-0.010695207
147	0xbc2ad189	-0.010425934
148	0xbb7c430f	-0.0038492118
149	0x3bed26f2	0.0072373087
150	0xbac3de40	-0.0014943555
151	0xbae19959	-0.0017211839
152	0x3c6dfd3f	0.014525711
153	0xbb3f204d	-0.002916354
154	0x3aa2c6ee	0.0012418905
155	0xbc0f1dd4	-0.008735139
156	0xb9f4fb73	-0.0004672665
157	0xba811d57	-0.0009850663
158	0x3bd53f01	0.006507755
159	0x3b049ce2	0.002023511
160	0x39db89ec	0.00041873695
161	0x3b4ec5a3	0.0031550906
162	0x37c365b9	2.329318e-05
163	0x3a9225c8	0.0011150176
164	0x3a5aae3a	0.0008342002
165	0xb9565854	-0.00020441535
166	0x3ac46f27	0.0014986739
167	0x3b9dafe7	0.004812229
168	0x3a869d0e	0.0010270195
169	0xba40d3d1	-0.0007355782
170	0x3b05bad5	0.002040555
171	0xb93275f6	-0.00017019347
172	0x3a843fbc	0.0010089795
173	0xbab804cb	-0.0014039514
174	0x39cf642c	0.0003955675
175	0x3abd13e7	0.0014425487
176	0x3b2436b8	0.002505703
177	0x3b0dffae	0.002166729
178	0x3950b9ac	0.00019905594
179	0xbb434140	-0.002979353
180	0xb7b18961	-2.1164016e-05
181	0x3a254c46	0.0006305616
182	0x3b5865f4	0.0033019753
183	0xbacc6546	-0.0015594147
184	0x3acee644	0.0015785177
185	0xbbe9e404	-0.0071377773
186	0x3a8d1c2f	0.0010765846
187	0x3aab89fb	0.0013087386
188	0x3ab4d38c	0.0013795956
189	0x3ac1c39f	0.0014783031
190	0xbb868553	-0.004105249
191	0x3cb3b7af	0.021938173

exp_avg_sq f4 [64, 3]
0	0x38f43837	0.000116452975
1	0x39455abb	0.00018821184
2	0x3b4838da	0.0030551464
3	0x37cd1c3a	2.4451048e-05
4	0x3738b88d	1.1010224e-05
5	0x39e2dcb9	0.0004327053
6	0x3970afc5	0.00022953663
7	0x394c4fed	0.00019484731
8	0x3bc44578	0.0059897266
9	0x3752f815	1.25747365e-05
10	0x371a1cee	9.185851e-06
11	0x385b7809	5.232546e-05
12	0x3c02a84e	0.007974697
13	0x39eb92b0	0.00044931984
14	0x3c0c7e93	0.0085750995
15	0x3881c3be	6.187659e-05
16	0x38829284	6.226174e-05
17	0x3af4f053	0.0018687345
18	0x382df162	4.147122e-05
19	0x37a05fd6	1.9118113e-05
20	0x39181a08	0.00014505547
21	0x38e5183f	0.00010924087
22	0x3721f97a	9.654434e-06
23	0x3940bbe5	0.00018380543
24	0x3806dc28	3.2153126e-05
25	0x395a2ea6	0.00020807478
26	0x3b7463b4	0.0037290873
27	0x39147f7f	0.00014161876
28	0x391d945a	0.00015027952
29	0x3ac0f006	0.001471997
30	0x394dc82b	0.00019624892
31	0x38b7ed6e	8.770345e-05
32	0x3badb9aa	0.005301674
33	0x38a5353c	7.877729e-05
34	0x36dcd82d	6.581677e-06
35	0x388cc7aa	6.7129105e-05
36	0x3889e6db	6.575669e-05
37	0x37bc06a3	2.2414437e-05
38	0x3a2f3c07	0.0006684665
39	0x38ef5ad8	0.00011413329
40	0x39028cbf	0.00012450198
41	0x3bc6954a	0.006060277
42	0x3876f5c1	5.8879847e-05
43	0x3861232a	5.367693e-05
44	0x3a66c231	0.00088027405
45	0x39296a35	0.00016156661
46	0x3740baaa	1.1487553e-05
47	0x3933e0ab	0.00017154466
48	0x397aacc1	0.00023906214
49	0x39341f25	0.0001717774
50	0x3b168ebb	0.0022973258
51	0x391840ae	0.00014519945
52	0x38c10133	9.2031805e-05
53	0x3b7b7c12	0.0038373512
54	0x3983bd67	0.00025127383
55	0x37bf4d6d	2.2805028e-05
56	0x3a2c8a3e	0.0006581879
57	0x394a09bb	0.00019267846
58	0x375d997d	1.3208363e-05
59	0x39af16f4	0.00033395702
60	0x393bdfe8	0.00017917121
61	0x37d7c69b	2.572248e-05
62	0x39c049f6	0.000366762
63	0x39ca887c	0.0003863013
64	0x39b11405	0.00033774987
65	0x3b9aadcb	0.004720425
66	0x39cc072e	0.0003891526
67	0x37dc7c65	2.628397e-05
68	0x39fb9a4a	0.00047989405
69	0x3969cff8	0.00022298086
70	0x37de8e51	2.6530734e-05
71	0x3a263a93	0.00063411257
72	0x39b602b7	0.00034715768
73	0x386455b7	5.4439264e-05
74	0x3aaaffa2	0.0013046155
75	0x389f7f9a	7.6054785e-05
76	0x3889d47e	6.572249e-05
77	0x3a044b4c	0.00050466205
78	0x3804d683	3.1671032e-05
79	0x37ddf3fb	2.6458865e-05
80	0x3a21adc4	0.00061675557
81	0x38b0ee40	8.4367115e-05
82	0x379e4f5e	1.8872026e-05
83	0x39aed5f2	0.00033347268
84	0x398b4ccc	0.00026569364
85	0x388245a1	6.2118525e-05
86	0x3abd61e8	0.0014448734
87	0x3995b209	0.0002855214
88	0x39a0cfb6	0.00030672335
89	0x3b71c742	0.0036892449
90	0x39749e5d	0.00023328648
91	0x39541ef8	0.00020229432
92	0x3b308e22	0.0026940187
93	0x37c2b915	2.3212788e-05
94	0x37ca7262	2.413354e-05
95	0x3926a384	0.00015891908
96	0x3981677d	0.00024681902
97	0x3930e1b9	0.00016868756
98	0x3ba23c2d	0.004951021
99	0x39988406	0.00029090064
100	0x3833bfe3	4.2855634e-05
101	0x3a8e809a	0.0010872066
102	0x3b26ef6d	0.0025472299
103	0x394abeb1	0.0001933526
104	0x3b8074aa	0.0039201574
105	0x393622dc	0.00017369859
106	0x389c2967	7.4463715e-05
107	0x3a3a2ace	0.00071017153
108	0x371d49e7	9.375136e-06
109	0x3711319f	8.654227e-06
110	0x394aa0f2	0.00019324178
111	0x381c86f4	3.7318983e-05
112	0x379021f6	1.7181952e-05
113	0x39ef4519	0.00045637114
114	0x378d7097	1.6860939e-05
115	0x374d4ea1	1.2237259e-05
116	0x39da7aa4	0.00041671575
117	0x3953bd42	0.00020193032
118	0x3804c1f1	3.1651874e-05
119	0x3a4769ea	0.000760703
120	0x3998b500	0.00029126555
121	0x37ff18b2	3.0409868e-05
122	0x3a29fc83	0.00064844656
123	0x39f67343	0.00047006653
124	0x3972dd22	0.00023161297
125	0x3b196886	0.0023408248
126	0x38451d8b	4.6995974e-05
127	0x38267f8e	3.969628e-05
128	0x39c9cb11	0.00038489004
129	0x396a685d	0.00022354857
130	0x3857a8f9	5.1417363e-05
131	0x3af2476b	0.0018484419
132	0x39742486	0.0002328326
133	0x37c0b2eb	2.2971499e-05
134	0x3a692a09	0.00088945084
135	0x39ccdac6	0.0003907291
136	0x384ee303	4.932565e-05
137	0x3a7a9ebb	0.0009560396
138	0x37794a4b	1.4858854e-05
139	0x370c9473	8.379214e-06
140	0x396850b6	0.00022155311
141	0x39a64429	0.0003171277
142	0x398873dc	0.00026026263
143	0x3bffebec	0.0078101065
144	0x3917aaa4	0.00014464051
145	0x383f6055	4.5627665e-05
146	0x3ae6412c	0.001756703
147	0x399144e9	0.00027707897
148	0x390e8dfc	0.00013595069
149	0x3aea9c2b	0.0017899325
150	0x39801fd7	0.00024437785
151	0x38ff64e6	0.00012178141
152	0x3ae3501b	0.0017342599
153	0x39717127	0.00023025704
154	0x386ced9a	5.648807e-05
155	0x3b2cc7b1	0.0026364143
156	0x37d51d9b	2.5405365e-05
157	0x3822d2d8	3.8820173e-05
158	0x3a334f86	0.0006840158
159	0x38ede2b2	0.00011343266
160	0x37bd9040	2.2597727e-05
161	0x39b1e0bc	0.0003392751
162	0x392663b6	0.00015868139
163	0x38e529d6	0.000109273635
164	0x3b895075	0.0041904994
165	0x383e1662	4.5320376e-05
166	0x3825a960	3.949681e-05
167	0x3a169598	0.0005744337
168	0x37ed23fc	2.8269358e-05
169	0x379ac8c9	1.8451728e-05
170	0x3a2c829d	0.0006580742
171	0x3752d956	1.2567578e-05
172	0x36c5df98	5.8970872e-06
173	0x392f9210	0.00016743713
174	0x39357b02	0.00017307329
175	0x3911aecb	0.00013893393
176	0x3b918b72	0.004441672
177	0x39681eb7	0.00022136686
178	0x37681324	1.3832734e-05
179	0x394fdb43	0.0001982274
180	0x37a32080	1.9446248e-05
181	0x36ec7605	7.0470874e-06
182	0x39c2e815	0.00037175478
183	0x38200145	3.8148155e-05
184	0x381d8d01	3.7563037e-05
185	0x3a457965	0.0007533043
186	0x38ec135e	0.00011256964
187	0x388653dd	6.405239e-05
188	0x3a3f1c64	0.00072903023
189	0x3b213982	0.0024600928
190	0x398117f0	0.00024622632
191	0x3bba1928	0.0056792684

exp_avg f4 [64]
0	0x398515c8	0.00025383965
1	0xb947f1bc	-0.00019068172
2	0x3c02c330	0.007981107
3	0xbaa3096e	-0.0012438723
4	0xba69042b	-0.00088888657
5	0xbb058f6a	-0.002037967
6	0xba9e6008	-0.0012083063
7	0xb98e44e3	-0.00027135675
8	0x3b4d6224	0.0031339014
9	0x3b41033f	0.0029451398
10	0x3b55520c	0.0032550124
11	0xba0012f7	-0.00048856385
12	0xb942a8a3	-0.00018564104
13	0x3bacd69c	0.005274607
14	0x3b2e7e1b	0.0026625458
15	0x3aa86234	0.001284665
16	0xbb425e8f	-0.0029658412
17	0xbb057498	-0.0020363685
18	0x39f8c94a	0.00047452218
19	0x3a828f7c	0.0009960975
20	0x3a9912d2	0.0011678583
21	0x3bc6d1ec	0.006067505
22	0x3aa649f5	0.0012686836
23	0xba516d12	-0.000798897
24	0x3a1f016e	0.00060655817
25	0x3b00096c	0.0019536866
26	0x3b6e4356	0.0036356053
27	0xb8bb13b1	-8.920523e-05
28	0x3a9369d4	0.0011246749
29	0x3ba3dd84	0.005000772
30	0xb9c1d491	-0.00036970203
31	0x3a48cabd	0.0007659605
32	0x3ae50169	0.0017471734
33	0x3a431ad9	0.000744266
34	0xbb43b5c0	-0.002986297
35	0x3a8d9aa9	0.0010803539
36	0x39841605	0.00025193408
37	0x3b401d01	0.0029314163
38	0x3a3b4cbf	0.000714492
39	0xba154075	-0.0005693504
40	0x3900c07b	0.00012278736
41	0x3bf7c254	0.0075610075
42	0xb9f570c6	-0.00046814064
43	0x398c2927	0.00026733542
44	0x3a47379b	0.00075995334
45	0xbb01945b	-0.0019772265
46	0xba2f6ed8	-0.0006692237
47	0x3bdee602	0.0068023214
48	0xba6bfeb0	-0.000900249
49	0xbc01cdd3	-0.0079226075
50	0x3b3d7ec5	0.0028914672
51	0xbaada79e	-0.0013248806
52	0x3b4fa90f	0.003168646
53	0x392ea816	0.0001665655
54	0xb8595586	-5.181648e-05
55	0x3a4b53af	0.0007756305
56	0x39d77863	0.0004109769
57	0xba76e6d0	-0.0009418549
58	0xb9e3234e	-0.00043323118
59	0x39a60d56	0.00031671923
60	0x399a0f47	0.0002938455
61	0x3a0e873b	0.0005437021
62	0xb9a0606b	-0.00030589415
63	0x3b73ff6e	0.0037231105

exp_avg_sq f4 [64]
0	0x39a0e2b0	0.00030686473
1	0x381a3307	3.6763984e-05
2	0x39d89b38	0.00041314377
3	0x37b95037	2.2091072e-05
4	0x3c049abb	0.008093531
5	0x390f320b	0.00013656185
6	0x388ed76e	6.8112146e-05
7	0x38f8b7e2	0.000118598124
8	0x397e8df3	0.00024276208
9	0x39a0abfb	0.00030645714
10	0x39938736	0.00028138765
11	0x38ba8c8c	8.89535e-05
12	0x38a6e63a	7.95838e-05
13	0x3970d6af	0.0002296816
14	0x38e40ed5	0.0001087465
15	0x39369c8e	0.00017415194
16	0x39de8a70	0.00042446284
17	0x396ff56e	0.00022884246
18	0x398a7c0a	0.00026413827
19	0x3962b928	0.00021622016
20	0x395724db	0.00020517728
21	0x3a3ebb2d	0.0007275816
22	0x39d41f2b	0.00040459013
23	0x3975caf3	0.00023440625
24	0x39bdccda	0.00036201515
25	0x3906a621	0.00012841124
26	0x388b40ad	6.640083e-05
27	0x38f48623	0.000116598116
28	0x399c64e7	0.00029829817
29	0x3a1fa84d	0.00060904474
30	0x39e9349a	0.00044480414
31	0x3847b207	4.7611098e-05
32	0x39cd5569	0.00039164282
33	0x399f3f21	0.00030373878
34	0x3b299c29	0.0025880432
35	0x396c2d75	0.00022523648
36	0x37969295	1.7949651e-05
37	0x3887b312	6.470656e-05
38	0x37f40158	2.9087692e-05
39	0x3961a3a2	0.0002151863
40	0x399fbbc9	0.00030466754
41	0x3a3a4703	0.00071059185
42	0x38b7f444	8.771618e-05
43	0x39880fc9	0.00025951702
44	0x3989a7c3	0.00026255668
45	0x39ce08e4	0.00039298006
46	0x37c4c141	2.3455012e-05
47	0x3a0b6e60	0.00053188764
48	0x394a3bbf	0.00019286478
49	0x39dd7a8c	0.0004224371
50	0x39b99e65	0.00035403963
51	0x3994f95f	0.00028414556
52	0x389539e8	7.1156595e-05
53	0x3920c62f	0.00015332618
54	0x3984d3b5	0.00025334736
55	0x38bb631d	8.935316e-05
56	0x38435bd6	4.657715e-05
57	0x37999851	1.830995e-05
58	0x399e97d5	0.00030249232
59	0x39702a35	0.00022903907
60	0x37e6ce7d	2.751429e-05
61	0x38a74af6	7.977143e-05
62	0x3936deed	0.00017439919
63	0x3b2cc5d2	0.0026363027

exp_avg f4 [64, 64]
0	0x39140edc	0.00014119915
1	0xb784705f	-1.5787953e-05
2	0x38f2f86e	0.00011585733
3	0x392a4737	0.00016238993
4	0x39288fad	0.00016075252
5	0x39f4b1ad	0.00046671685
6	0x38708acf	5.7349735e-05
7	0x391ab4b8	0.00014753907
8	0xb68013c7	-3.8169997e-06
9	0x390bb6f8	0.00013324234
10	0x3905f7b6	0.00012776148
11	0x3939d9cc	0.0001772411
12	0x3626f058	2.4875826e-06
13	0x38469dc6	4.7353817e-05
14	0xb7cf74ec	-2.4730769e-05
15	0x3940ed2a	0.00018398897
16	0x3908a19a	0.00013030172
17	0x3812af5e	3.4972436e-05
18	0x3500fdb3	4.8052897e-07
19	0x37d21369	2.504299e-05
20	0x373f0962	1.1386672e-05
21	0x376d469d	1.4142742e-05
22	0x382329a5	3.8901013e-05
23	0xb78414d6	-1.5745329e-05
24	0x3745e4ff	1.1795432e-05
25	0xb6aac1a2	-5.0889366e-06
26	0x39362c61	0.00017373405
27	0x38468625	4.733181e-05
28	0xb8661ae6	-5.4861324e-05
29	0x378cf25b	1.6802156e-05
30	0x390794a8	0.00012929982
31	0x3858728d	5.1605097e-05
32	0x39057f47	0.00012731283
33	0x378585ae	1.5917085e-05
34	0x38f5162f	0.000116866424
35	0x36a729fa	4.9818746e-06
36	0x38aaadcb	8.138603e-05
37	0x36712614	3.5933963e-06
38	0x3681d10a	3.868835e-06
39	0x38b8d041	8.812594e-05
40	0x38488240	4.780502e-05
41	0x3811f916	3.4802673e-05
42	0x3948892b	0.00019124585
43	0x39ca336a	0.0003856675
44	0xb733fce8	-1.0728116e-05
45	0x38946637	7.076229e-05
46	0x39833300	0.00025024265
47	0x3911460d	0.00013854374
48	0x388508d3	6.343578e-05
49	0x38c92a47	9.592302e-05
50	0xb89e9be1	-7.563062e-05
51	0x38233b0f	3.891723e-05
52	0xb83601fd	-4.3394033e-05
53	0x382fcc9a	4.19138e-05
54	0x37e719a1	2.754928e-05
55	0x391d7e4d	0.00015019737
56	0x36d9b68a	6.4883543e-06
57	0x38a0ce59	7.66783e-05
58	0x385cb2f2	5.2618743e-05
59	0x38fb6001	0.00011986495
60	0x38108578	3.4456578e-05
61	0x379b3b9d	1.85052e-05
62	0x388ecb44	6.808949e-05
63	0x37aa3ffc	2.0295374e-05
64	0xbaa07ce1	-0.0012244248
65	0x3758c3dc	1.2920205e-05
66	0xba955227	-0.0011392281
67	0xba839906	-0.0010040111
68	0xba8181c3	-0.0009880591
69	0xbb043297	-0.0020171755
70	0x39257f2f	0.00015783006
71	0xba5ee800	-0.00085031986
72	0x36633368	3.3855558e-06
73	0xba84ecf6	-0.0010141421
74	0xba9f0257	-0.0012131435
75	0xba749051	-0.0009329366
76	0x39651434	0.00021846668
77	0xba121f8b	-0.0005574158
78	0xb8865191	-6.404811e-05
79	0x39c619b7	0.00037784662
80	0xba665ef1	-0.0008787951
81	0xb685f643	-3.9923775e-06
82	0xb7cf2d8d	-2.4697534e-05
83	0xb996f101	-0.0002878979
84	0xb99188ee	-0.00027758576
85	0x35a88ff2	1.2558869e-06
86	0xb9cef118	-0.0003947101
87	0x37b4f163	2.1570077e-05
88	0xb98b0bdc	-0.00026520982
89	0xb9242d20	-0.00015657069
90	0xba678423	-0.00088316406
91	0xb8616611	-5.3739237e-05
92	0x392b79f6	0.00016353265
93	0x35f38ea8	1.8146429e-06
94	0xba7e3476	-0.00096971483
95	0xba285a73	-0.00064221694
96	0xba83b148	-0.0010047341
97	0xb98c8b81	-0.0002680682
98	0xba684042	-0.0008859673
99	0xb92b559d	-0.00016339724
100	0xb9cabc15	-0.00038668574
101	0xb9003d68	-0.00012229907
102	0xb6f4d5f6	-7.296675e-06
103	0xba2960ff	-0.0006461292
104	0xb9d0e4e3	-0.00039843385
105	0x80000004	-6e-45
106	0xbab459bf	-0.0013759657
107	0xbaf5523c	-0.0018716524
108	0x37bbfd15	2.2409988e-05
109	0xb96b51dc	-0.00022441841
110	0xba9d78cc	-0.001201415
111	0xbaa2f1e1	-0.0012431705
112	0xba1e2463	-0.0006032644
113	0xba24d0b9	-0.00062872056
114	0x38cd5ffd	9.793041e-05
115	0xb9b64faa	-0.000347731
116	0x39342628	0.00017180352
117	0x3615b7b3	2.2309657e-06
118	0xb6ea2ff9	-6.979328e-06
119	0xba8d649c	-0.001078743
120	0xb66f78a1	-3.568399e-06
121	0xb9e5418e	-0.00043727126
122	0xb8268868	-3.9704522e-05
123	0xba3c7b2c	-0.0007189985
124	0xb94aa8a2	-0.00019327042
125	0xb9f3d5be	-0.00046507822
126	0xb8a46809	-7.8395075e-05
127	0xb9663a21	-0.00021956164
128	0x39150555	0.00014211734
129	0xb79af94a	-1.8474315e-05
130	0x38f449ce	0.00011648574
131	0x3930e610	0.00016870373
132	0x3928076b	0.00016024492
133	0x3a02be49	0.0004987461
134	0x38a736ba	7.973374e-05
135	0x391fa2e6	0.00015224106
136	0xb58c4982	-1.0452206e-06
137	0x390868ef	0.00013009062
138	0x39071199	0.00012881159
139	0x393e6091	0.00018155786
140	0x37352268	1.07964515e-05
141	0x385b435c	5.2276402e-05
142	0xb7efcd55	-2.8586635e-05
143	0x3976cf55	0.00023537625
144	0x3905cba6	0.00012759733
145	0x38561777	5.104343e-05
146	0x366440a6	3.4012278e-06
147	0x37d4d8ae	2.5373269e-05
148	0x3724e4e5	9.828455e-06
149	0x377e7a26	1.516802e-05
150	0x382472cf	3.920757e-05
151	0xb7a4c35e	-1.9641298e-05
152	0x376e8778	1.4217447e-05
153	0xb6c6b9ed	-5.9225044e-06
154	0x393a73c0	0.00017781463
155	0x387dc224	6.0500708e-05
156	0xb8768e50	-5.878351e-05
157	0x37abe10d	2.0489586e-05
158	0x3902ed0a	0.0001248607
159	0x3868f304	5.5539436e-05
160	0x39076876	0.00012913518
161	0x37984552	1.8152092e-05
162	0x38f9df7b	0.00011914872
163	0x36ab9480	5.113485e-06
164	0x38b9ea29	8.865103e-05
165	0x355110b4	7.7882873e-07
166	0x35ab904f	1.2782492e-06
167	0x38bef77f	9.106006e-05
168	0x38511e90	4.9857947e-05
169	0x380dfefa	3.3854485e-05
170	0x39554b78	0.00020341377
171	0x39d0e504	0.00039843481
172	0xb724781b	-9.803126e-06
173	0x38b8a861	8.805167e-05
174	0x398e3e24	0.0002713065
175	0x3912a343	0.00013984465
176	0x388c05a4	6.676771e-05
177	0x38c59cd6	9.422905e-05
178	0xb8aa7610	-8.1282225e-05
179	0x38349f97	4.3063974e-05
180	0xb8377432	-4.3738815e-05
181	0x3864fdd6	5.459584e-05
182	0x3837fc63	4.3865653e-05
183	0x392720c5	0.00015938569
184	0x36701688	3.5775902e-06
185	0x38b60749	8.679793e-05
186	0x38a01121	7.632585e-05
187	0x38fbfc2f	0.000120155855
188	0x38267733	3.9688497e-05
189	0x37abb8bf	2.0470818e-05
190	0x38b5b324	8.66412e-05
191	0x37aa6a1f	2.0314996e-05
192	0xb98eabd8	-0.00027212384
193	0x38c4ff9c	9.393619e-05
194	0xb956c5c8	-0.0002048231
195	0xb9c16c8e	-0.00036892708
196	0xb9d6188e	-0.00040835555
197	0xba3db7ee	-0.00072371855
198	0x39776902	0.00023594874
199	0xb9ba73f4	-0.00035563076
200	0x399c9daf	0.00029872122
201	0xb9919d70	-0.00027773855
202	0xb9614f4e	-0.00021487215
203	0xb9e557da	-0.00043743738
204	0x35ffbc96	1.9053866e-06
205	0xb657e10f	-3.2168498e-06
206	0xb8ebd74e	-0.00011245777
207	0xb8f1fae4	-0.000115385075
208	0xb9881cf3	-0.0002596151
209	0x39d66eb9	0.00040899756
210	0xb8d8cc55	-0.000103377424
211	0xb934edee	-0.00017254773
212	0xb8c20841	-9.252178e-05
213	0x398d8efe	0.00027000153
214	0xb9220f4b	-0.00015455221
215	0x38e5bf82	0.00010955242
216	0x37e609d2	2.742271e-05
217	0xb94359b7	-0.0001863007
218	0xb9d19c83	-0.00039980197
219	0x37a3971f	1.9501485e-05
220	0x386c3040	5.631172e-05
221	0x39b0164f	0.00033585957
222	0xb987733f	-0.00025835072
223	0xb847f253	-4.767098e-05
224	0xb9547987	-0.00020263168
225	0xb710ff9e	-8.642584e-06
226	0xb93e6a3d	-0.00018159389
227	0xb91818d5	-0.000145051
228	0xb8342d09	-4.2957286e-05
229	0xb92a8d16	-0.00016265022
230	0x38fe5242	0.000121269855
231	0xb954053f	-0.0002021985
232	0xb9547339	-0.0002026082
233	0x3967a81a	0.000220925
234	0xb99f5426	-0.0003038954
235	0xba3dedd4	-0.0007245217
236	0xb898a689	-7.2789444e-05
237	0xb717b6e7	-9.042887e-06
238	0xb9bdf569	-0.00036231734
239	0xb973a354	-0.0002323513
240	0xb9074a08	-0.00012902182
241	0xb955d556	-0.00020392737
242	0xb8d0510c	-9.933309e-05
243	0x373d3226	1.1276954e-05
244	0xb84bf1f6	-4.8624315e-05
245	0x38369c98	4.353802e-05
246	0x39e6d2d9	0.00044026112
247	0xb92d0f14	-0.00016504183
248	0x39021e30	0.00012409012
249	0xb90ba4a1	-0.00013317402
250	0x3a0c5005	0.00053525
251	0xb9adbfd8	-0.00033140066
252	0xb7e221eb	-2.6957094e-05
253	0x380b855b	3.326438e-05
254	0x39399d98	0.00017701683
255	0x3981fa1d	0.00024791146

exp_avg_sq f4 [64, 64]
0	0x35a66a8f	1.2398976e-06
1	0x34123dcc	1.3619791e-07
2	0x35a0ae81	1.1971716e-06
3	0x35785492	9.2510265e-07
4	0x35a43060	1.2233031e-06
5	0x3612dc54	2.1883943e-06
6	0x358f6238	1.0682916e-06
7	0x3558e281	8.0795877e-07
8	0x358cc218	1.0487302e-06
9	0x353eef18	7.1128443e-07
10	0x35b826d8	1.3720373e-06
11	0x35894086	1.0226074e-06
12	0x34a19f28	3.0104388e-07
13	0x34fe12db	4.7324906e-07
14	0x35c24546	1.4474288e-06
15	0x35e483b4	1.7025654e-06
16	0x34fb1991	4.6770995e-07
17	0x35ed4a8c	1.7679572e-06
18	0x3530dfb9	6.589067e-07
19	0x3556466c	7.982369e-07
20	0x353dae16	7.0661315e-07
21	0x356d0060	8.8289926e-07
22	0x35226a9e	6.050485e-07
23	0x35283f8e	6.267736e-07
24	0x35800d1a	9.540556e-07
25	0x35df2975	1.662686e-06
26	0x3539657c	6.906555e-07
27	0x34bba124	3.494871e-07
28	0x3578721e	9.255326e-07
29	0x35a50c67	1.2297068e-06
30	0x3529be2d	6.323415e-07
31	0x35533398	7.8678704e-07
32	0x3568a3a1	8.6664846e-07
33	0x354330ef	7.271437e-07
34	0x35385eee	6.868348e-07
35	0x35599b85	8.106511e-07
36	0x3501684a	4.8208005e-07
37	0x3595d3b8	1.1162983e-06
38	0x34846145	2.465769e-07
39	0x3507735b	5.0459283e-07
40	0x3534ceff	6.7356444e-07
41	0x35672498	8.6107457e-07
42	0x35cecd99	1.5408033e-06
43	0x35dd14fa	1.6471888e-06
44	0x3522b7ec	6.0617344e-07
45	0x35387cce	6.8726956e-07
46	0x357a8528	9.3326025e-07
47	0x35b37fdf	1.3373755e-06
48	0x3522e72f	6.068612e-07
49	0x343f0c7a	1.77928e-07
50	0x363504a0	2.6973794e-06
51	0x348cdc4b	2.6237316e-07
52	0x357c4427	9.397649e-07
53	0x34a7425f	3.1154465e-07
54	0x3600671a	1.91335e-06
55	0x35a27741	1.2104648e-06
56	0x34905577	2.6884274e-07
57	0x34bf9e58	3.5691733e-07
58	0x3659be78	3.2446387e-06
59	0x355bcd57	8.1882666e-07
60	0x3486672a	2.5034507e-07
61	0x35384966	6.865215e-07
62	0x350ba745	5.2024944e-07
63	0x35ea83db	1.7472734e-06
64	0x37907cf9	1.7224333e-05
65	0x34a23359	3.0212212e-07
66	0x378313ee	1.5625697e-05
67	0x374e00b2	1.2278719e-05
68	0x3799655e	1.8286224e-05
69	0x382c7571	4.111737e-05
70	0x343bc2ac	1.7486553e-07
71	0x3720c223	9.581944e-06
72	0x30b23aaf	1.2967883e-09
73	0x3742bd0c	1.1607317e-05
74	0x379481c1	1.7703396e-05
75	0x3733f64c	1.0726577e-05
76	0x34464e53	1.8468681e-07
77	0x36961f21	4.4739722e-06
78	0x35b6b7bf	1.3613534e-06
79	0x35ffd9a0	1.9062318e-06
80	0x370adcdf	8.2768665e-06
81	0x32215879	9.39155e-09
82	0x35b36fc0	1.3369063e-06
83	0x36213f68	2.4027777e-06
84	0x36012b1a	1.9247586e-06
85	0x2d33969d	1.0208415e-11
86	0x364d2f49	3.0574904e-06
87	0x32ee926e	2.7773435e-08
88	0x3613bc4d	2.2014312e-06
89	0x36141499	2.2065708e-06
90	0x36e38088	6.78009e-06
91	0x3589d6bb	1.026979e-06
92	0x34817258	2.4111318e-07
93	0x2df30bd6	2.7631158e-11
94	0x37326ba5	1.063469e-05
95	0x371158ce	8.66335e-06
96	0x37402052	1.1451617e-05
97	0x3609aa24	2.0513626e-06
98	0x37179f94	9.037456e-06
99	0x35aaa423	1.2713757e-06
100	0x368eb111	4.252543e-06
101	0x36031768	1.9534145e-06
102	0x33e7ac5f	1.078813e-07
103	0x36b60f1f	5.425783e-06
104	0x36904ef6	4.3007267e-06
105	0x002da14a	4.190457e-39
106	0x37bab687	2.2257924e-05
107	0x3807653b	3.2280786e-05
108	0x353f9caf	7.138105e-07
109	0x36565f13	3.1943825e-06
110	0x37802c71	1.5279484e-05
111	0x3792b6d8	1.74897e-05
112	0x36bc93b8	5.6200333e-06
113	0x36666967	3.4334023e-06
114	0x3607ff66	2.026523e-06
115	0x35e9cc37	1.7419287e-06
116	0x357399a0	9.074811e-07
117	0x351ed28a	5.916596e-07
118	0x32b5636b	2.1116383e-08
119	0x3770dc73	1.4356442e-05
120	0x33a3a8ba	7.62097e-08
121	0x36ad12d8	5.1579955e-06
122	0x331cb0a9	3.6482252e-08
123	0x3722a4c4	9.694315e-06
124	0x3626966b	2.4823482e-06
125	0x36d0d334	6.2234703e-06
126	0x341d67f0	1.4659577e-07
127	0x349a0652	2.8689334e-07
128	0x35c0a9d5	1.4354542e-06
129	0x342a5ac9	1.5865511e-07
130	0x35b9fe5d	1.3857604e-06
131	0x358fb1a4	1.070603e-06
132	0x35beaf5a	1.4207137e-06
133	0x362868f0	2.5095032e-06
134	0x35a8b7bf	1.2570453e-06
135	0x357b5002	9.3621213e-07
136	0x35a4c806	1.2277167e-06
137	0x355d0f7c	8.235145e-07
138	0x35d52437	1.5880277e-06
139	0x359f11cb	1.1851602e-06
140	0x34bd8eaa	3.5307795e-07
141	0x3513d65f	5.507372e-07
142	0x35e24a7f	1.6859993e-06
143	0x3606e09d	2.0098298e-06
144	0x35115653	5.414233e-07
145	0x360aee83	2.0702435e-06
146	0x354e9a2c	7.696533e-07
147	0x357955ff	9.288487e-07
148	0x355ca015	8.2189337e-07
149	0x358adfeb	1.034697e-06
150	0x353ce5b2	7.036971e-07
151	0x3544a5f6	7.3257195e-07
152	0x35956bb7	1.1132714e-06
153	0x3601dfcb	1.9352763e-06
154	0x35572f97	8.0162994e-07
155	0x34dccf08	4.1128828e-07
156	0x3590eeae	1.0798301e-06
157	0x35c14e8d	1.4402482e-06
158	0x35448dcc	7.322203e-07
159	0x3573c662	9.081324e-07
160	0x358698cc	1.0028248e-06
161	0x3563b33c	8.482491e-07
162	0x35554f7b	7.946434e-07
163	0x357d2feb	9.4319574e-07
164	0x35150221	5.5509923e-07
165	0x35ae83bc	1.300235e-06
166	0x349b0301	2.8873185e-07
167	0x351cfb1a	5.847993e-07
168	0x3552d2e4	7.853798e-07
169	0x35878792	1.009774e-06
170	0x35ee72b5	1.7765766e-06
171	0x35fecf9f	1.89849e-06
172	0x353dd86b	7.0722916e-07
173	0x3558bdf6	8.07427e-07
174	0x358fa7b5	1.0703139e-06
175	0x35cfc950	1.5481291e-06
176	0x353d450a	7.050845e-07
177	0x345caf3c	2.0552847e-07
178	0x3652ea46	3.1428804e-06
179	0x34a3d412	3.0515417e-07
180	0x35932754	1.09638e-06
181	0x34c4f0a4	3.6682934e-07
182	0x36164f3e	2.2397867e-06
183	0x35bb4cac	1.39549e-06
184	0x34a920ae	3.150248e-07
185	0x34dbb956	4.0926778e-07
186	0x367f0ceb	3.800548e-06
187	0x357f7846	9.5169923e-07
188	0x349a9385	2.879207e-07
189	0x3554fbcd	7.934257e-07
190	0x35243b19	6.118076e-07
191	0x36094367	2.0453824e-06
192	0x36bc6365	5.6144077e-06
193	0x34fad5be	4.6721647e-07
194	0x36b68546	5.4395377e-06
195	0x36555e04	3.1794198e-06
196	0x369f142c	4.7409176e-06
197	0x372729f3	9.963743e-06
198	0x35493d85	7.496786e-07
199	0x36185dfa	2.2704467e-06
200	0x35f13293	1.7970618e-06
201	0x365a2734	3.250735e-06
202	0x36d16e47	6.2415234e-06
203	0x3616766c	2.2420672e-06
204	0x32bc3208	2.1908832e-08
205	0x35fdd316	1.8911403e-06
206	0x34a8948b	3.1400518e-07
207	0x35338299	6.687274e-07
208	0x360fdcd9	2.143721e-06
209	0x3643edd1	2.9195692e-06
210	0x3489cba0	2.5666395e-07
211	0x350fc7e9	5.356256e-07
212	0x3543c946	7.293605e-07
213	0x35af8889	1.3078253e-06
214	0x35695e44	8.693644e-07
215	0x34a9f0ac	3.1653815e-07
216	0x35d74def	1.604143e-06
217	0x34f43a71	4.5491063e-07
218	0x359d4b10	1.1719258e-06
219	0x3510eba8	5.3987105e-07
220	0x33f65362	1.1470435e-07
221	0x35fc27b0	1.8787014e-06
222	0x3641ae3e	2.8860663e-06
223	0x367441fd	3.6397244e-06
224	0x36838fba	3.920836e-06
225	0x35a0fce9	1.1994535e-06
226	0x3650c6db	3.1110164e-06
227	0x349d7f77	2.9336272e-07
228	0x360da819	2.1108483e-06
229	0x34830822	2.440657e-07
230	0x352451c5	6.121375e-07
231	0x35d75fbb	1.604661e-06
232	0x3593b02b	1.1003625e-06
233	0x3594af58	1.1077891e-06
234	0x36f1a8ae	7.2019966e-06
235	0x36ed7514	7.07678e-06
236	0x33e00fc9	1.0433684e-07
237	0x35c8d9a1	1.49645e-06
238	0x368e5ae8	4.2425127e-06
239	0x36cb1739	6.052575e-06
240	0x360a4a87	2.0606983e-06
241	0x355950a3	8.095614e-07
242	0x340373fb	1.2242519e-07
243	0x3587d518	1.0120302e-06
244	0x339824c4	7.084739e-08
245	0x34c993d9	3.754674e-07
246	0x365d3e3d	3.2967794e-06
247	0x36b91fc0	5.517126e-06
248	0x3529330c	6.303169e-07
249	0x35e2932a	1.6881143e-06
250	0x36b10d86	5.2765854e-06
251	0x361f1a70	2.3708235e-06
252	0x3599d6b6	1.1461877e-06
253	0x364f1c58	3.0861902e-06
254	0x351005f3	5.365284e-07
255	0x363b298d	2.7889357e-06

exp_avg f4 [64]
0	0x378bbb5a	1.6657334e-05
1	0xb95a9108	-0.00020844128
2	0x37aca1f4	2.0579413e-05
3	0xb74a2a09	-1.2049925e-05
4	0x3790962e	1.723607e-05
5	0x37bf726b	2.2822254e-05
6	0xb96ee9a7	-0.00022784491
7	0xb71b9da9	-9.275428e-06
8	0x389ef253	7.5791635e-05
9	0x3773c2cc	1.4529283e-05
10	0x00000004	6e-45
11	0xb8aa1289	-8.109684e-05
12	0xb96f4424	-0.000228182
13	0x37a357e5	1.9472043e-05
14	0xb857f012	-5.1483577e-05
15	0xb8f6f73b	-0.00011776244
16	0x00000004	6e-45
17	0xb8cee76e	-9.8659526e-05
18	0xb8e82687	-0.00011069798
19	0x00000004	6e-45
20	0x37c5938f	2.3552942e-05
21	0x37a9ed75	2.0256944e-05
22	0x37a509f2	1.9674164e-05
23	0xb937c04d	-0.00017523878
24	0xb8c4e879	-9.38931e-05
25	0x37a3788a	1.9487245e-05
26	0x379c29b1	1.8616063e-05
27	0x379b9136	1.8545059e-05
28	0x3793ae9e	1.7605078e-05
29	0x37591f24	1.2941458e-05
30	0x37836748	1.5664511e-05
31	0x378d1722	1.6819282e-05
32	0x00000004	6e-45
33	0x37aa927c	2.0333791e-05
34	0x00000004	6e-45
35	0x00000004	6e-45
36	0x00000004	6e-45
37	0x377de897	1.5134129e-05
38	0x39ce932b	0.0003940103
39	0x37a202bc	1.9313178e-05
40	0x37a16bf9	1.9242974e-05
41	0x3799d8f3	1.8340046e-05
42	0x378c763c	1.6744358e-05
43	0x37789fa4	1.4819121e-05
44	0x3780bd39	1.5346903e-05
45	0x37c1a051	2.3082046e-05
46	0x38eeecad	0.00011392809
47	0x37bc5a22	2.2453318e-05
48	0x3878a15d	5.927809e-05
49	0xb8597474	-5.1845287e-05
50	0x37983a04	1.8146828e-05
51	0xb6fe2cfc	-7.5750268e-06
52	0xb8c7df57	-9.53066e-05
53	0x3932635d	0.00017012419
54	0x380ce173	3.3588567e-05
55	0xb9411750	-0.00018414599
56	0x00000004	6e-45
57	0x378dff2c	1.6927333e-05
58	0x38fa380e	0.0001193137
59	0x37df3c7a	2.6611833e-05
60	0x37b03377	2.10048e-05
61	0x37b1c866	2.1193362e-05
62	0x37aa487a	2.0299329e-05
63	0x3761918c	1.3444933e-05
